matd3_actor.pth (torch, 274992 bytes, 6 tensors)

l1.weight f4 [256, 6]
00000000: c0dc 6bbe d757 8b3e 5eb7 72bd 52b5 1f3f
00000010: 7acb 9fbe a6df 9bbe 66e6 6e3e 1367 a8bd
00000020: 2c01 5bbe aafc 663e 4c8c aa3e 86c3 f73e
00000030: 87cf 7dbd b355 9a3e e24f 933d 0ea9 0abf
00000040: b266 81be 17a4 ec3e 3558 233f 196b 31be
00000050: c1cc 753e d141 59be 384e d9bd 0a3c 4fbe
00000060: ad8f e9be b0ca 0abf 64ec 653e 6d44 a33e
00000070: fd3c 103d d2b0 48bf 85fc b43e 32a1 a7bd
00000080: a14c 3e3e e7bc c9be d2f5 f93d 892b f4be
00000090: 7ecd ce3e 2046 6b3e fa0f 84bd 1114 bf3e
000000a0: eda1 46be 3ee1 c2bd 38a5 14bd b873 1dbd
000000b0: 7c25 8e3e a02f a8bd 979c 8fbe 68d3 a9be
000000c0: b76a 073d b865 97bd f5f0 b5bd c7c1 48bd
000000d0: 5f9a 223e 50d0 12bf 56e4 df3e d40e 2d3e
000000e0: b25f 2c3e ba42 bdbd 183d 0dbf b9f1 a8be
000000f0: d9b5 973e 7435 c63e 1a60 c0be 8a95 63bf
00000100: b1fc 3c3e 5cf4 bc3d 81ef 87be 5f0f 173f
00000110: 4382 d13e 6458 193e adb4 463e 9962 59bf
00000120: df8d 913e 5d6b 53bf 0520 913e 367f 93be
00000130: 8f6a 51bb 7504 ef3e f274 073f 686b 853e
00000140: 7514 17bf 1e94 bbbd e92d ba3e d3a4 84be
00000150: 244a cdbe 3ba0 d5bc 7d1b 073f 9229 983d
00000160: c105 3bbe 00ac d63e 6c82 353e 1c65 70bf
00000170: 639a 503d 3833 d03e e305 223f ba4c f33e
00000180: 677e acbe c884 09be 29dd 91be 16c2 a43d
00000190: 9c6a a93e 26a1 243f 9c7c 913e 1e5b 0b3f
000001a0: 80ce e5bb ed9c 71be 5de0 9a3e 890f 983d
000001b0: a325 72be 296a df3e 5847 843e 9eef 27be
000001c0: 4877 d63e 1e24 08bf 3788 c33e b9bd eebe
000001d0: 30f0 2b3d d03e 77be 708b cc3e 80f4 2a3d
000001e0: b92c a6bd 14e8 123f e5ad 103f e3d5 50be
000001f0: b8ad 853c 0aa1 1e3f df45 e43e 65b4 213e
00000200: ba9e f7be ffa3 a3be 0d1c 6dbe bf22 b23d
00000210: 0373 50bc 83ec cc3e 6ba3 1c3e a4f8 c53e
00000220: d18e 33bf 6af5 0d3e d675 e0bd b231 6cbe
00000230: 0bd0 c2bd be3b 493e eb9e 053f 076a 9fbe
00000240: c32e a1be e315 fb3d 32de 87bc 339b 0d3f
00000250: 5bcb fabe 631c f0be 4a56 943e bdd5 7abd
00000260: 4dc7 3abe dc2d 2bbf 736f 213e a593 693e
00000270: 27dc 0c3f dc19 13be 16f0 cfbe a1cb 59bd
00000280: 5342 26bf 0de1 1e3f a7f0 00bf ba8b d63e
00000290: 6079 943e c69a c6bd a042 bc3d 1f51 e0be
000002a0: 362b 13bb 0e44 87be a533 5cbe 1a61 08bf
000002b0: 14ae 233e 05aa 003f 173d 49bf 8abd 0a3e
000002c0: ce95 e73e c043 a3be 1cf6 7f3e 7d47 72bc
000002d0: 3c7e 09bd fdae 88be 2147 9dbe a6ae 92be
000002e0: 5d54 613e 45cf 3a3e 9446 003f 6e2a b83d
000002f0: 60ef 1bbe d4ae 94be e795 3ebe d350 d5bd
00000300: 99c4 84bd f1c1 80bf 9ca9 bbbe d61c 45bf
00000310: 663c 0cbd 0ba9 ba3c 2e8b 543d 1686 f5be
00000320: 0cd1 d43c d4b5 fe3e d28b b13d 147c 17bf
00000330: c4df 983e 58cd d23c 0186 13be 014f f6be
00000340: e0a7 96be 91f8 9e3e be10 713d 5149 0f3e
00000350: 750f b43e b27b 08bf a20f 09bf 7e65 47be
00000360: 6d69 e93e f384 233e b4df be3e dba9 9d3e
00000370: 62c8 a43e b816 efbe 9393 b0be 5ac3 87be
00000380: 085d a3be 683f ac3e 289e a5be 2624 c4be
00000390: bf98 1a3e 7d34 1b3f f756 473e 90a1 17be
000003a0: e9b1 d9be 0880 193f 6009 493d 1ce6 fcbd
000003b0: 8222 32be b0fb d43c 245f 8abe 4c6e 0fbe
000003c0: 5c14 103f a836 e6bd c711 4abe e496 3dbd
000003d0: 52a4 f8be 2b73 83be 46e5 a3bd c435 23bf
000003e0: 824a 7abc d19d dd3e c6e0 afbd f2e3 713d
000003f0: 7e39 0ebf 20f1 c5be b9ff e73c 53d3 e93e
-0.23033428 0.27215454 -0.059256904 0.6238605 -0.31209928 -0.30444068 0.23330078 -0.08222785
-0.21387166 0.22557321 0.33310163 0.4839136 -0.06196549 0.30143508 0.07192971 -0.54164207
-0.25273663 0.4621894 0.6380647 -0.17326011 0.24003889 -0.21216513 -0.10610622 -0.20237747
-0.45617428 -0.54215527 0.22453457 0.31888142 0.035214413 -0.78394806 0.35348907 -0.081850424
0.18583919 -0.39401934 0.1220509 -0.47689465 0.40391153 0.2297597 -0.0644836 0.37319997
-0.19397707 -0.09515618 -0.036290377 -0.038440436 0.27762973 -0.08212209 -0.28049156 -0.33169103
0.033060756 -0.07392448 -0.088838495 -0.049012925 0.158792 -0.5734911 0.43728894 0.16900188
0.1683338 -0.09241243 -0.55171347 -0.3299692 0.29630926 0.38712656 -0.3757332 -0.88900054
0.18455769 0.09226295 -0.26549914 0.5900783 0.40919694 0.14975125 0.1940486 -0.84916073
0.28428552 -0.825857 0.2834474 -0.28807992 -0.0031954383 0.46683088 0.5291282 0.26058507
-0.5901559 -0.091591105 0.36363152 -0.25907 -0.40095627 -0.02607738 0.5277632 0.07429804
-0.18263914 0.419281 0.17725533 -0.9390428 0.050928485 0.40664077 0.6329023 0.47519475
-0.33690187 -0.13429558 -0.28489044 0.080448315 0.3308915 0.64308393 0.28415382 0.5443591
-0.007013142 -0.23595019 0.302493 0.07424838 -0.2364717 0.4363568 0.2583568 -0.164
0.4188788 -0.5318011 0.3818986 -0.46629122 0.041977108 -0.24145055 0.39950132 0.04173708
-0.08113999 0.57385373 0.5651534 -0.20394091 0.016318187 0.61964476 0.44584557 0.15791471
-0.48363286 -0.31961057 -0.23155232 0.086980335 -0.012722733 0.40024194 0.15296714 0.3866626
-0.70139796 0.1386315 -0.109599754 -0.23065832 -0.09512337 0.19651696 0.52195615 -0.3113558
-0.3148099 0.12260034 -0.016585443 0.5531494 -0.48983273 -0.46896657 0.28972083 -0.061238993
-0.1824009 -0.6686685 0.15765171 0.22810228 0.55023426 -0.14365333 -0.4061286 -0.05317271
-0.6494495 0.6206215 -0.50367206 0.41903478 0.28998852 -0.096974894 0.09192395 -0.4381189
-0.0022456176 -0.2641911 -0.21504076 -0.53273165 0.15984374 0.5025943 -0.7860884 0.13548866
0.4523148 -0.31887627 0.24996227 -0.014787552 -0.033567652 -0.26696005 -0.3071833 -0.2864887
0.22004838 0.1824313 0.50107694 0.08992468 -0.15228033 -0.29039633 -0.1861187 -0.104158066
-0.064828105 -1.0059186 -0.3665284 -0.76997125 -0.034237288 0.022785684 0.051890545 -0.47953862
0.025978588 0.497481 0.08669247 -0.59173703 0.2985822 0.025732681 -0.14406587 -0.4810715
-0.29424953 0.31049016 0.058853857 0.13992812 0.35168043 -0.53313744 -0.5353948 -0.1947231
0.45588246 0.15968685 0.37280047 0.30793652 0.3218413 -0.4669702 -0.3448759 -0.2651623
-0.31906915 0.33642125 -0.32347226 -0.3830883 0.1509733 0.60626966 0.19466768 -0.14807725
-0.42518547 0.59960985 0.049081206 -0.123485774 -0.17395976 0.02599892 -0.27025712 -0.14006919
0.56281066 -0.112408936 -0.19733344 -0.04628648 -0.48562866 -0.25673804 -0.08002715 -0.63753915
-0.015276553 0.43284467 -0.08587794 0.059055276 -0.55556476 -0.38660526 0.02832018 0.4566904

l1.bias f4 [256]
00000000: 5e85 f53d ce43 5bbe 5008 99bc bad3 53be
00000010: fcff d33e 5ae0 81be 7273 34bd e1a1 5dbe
00000020: a946 a63e 0ddb f63d 7aec 0dbd 647e c1be
00000030: f191 eb3c 25d4 3dbe 8176 83be 143c 19be
00000040: 2963 4e3e 69c2 63be 40f8 fdbc 5d32 cabd
00000050: 42bc 89be a114 7e3e edfa 0b3e 3363 85bc
00000060: ab96 b93e 7a73 4b3e 241c 573e 47b5 993e
00000070: d348 3d3e fb45 f33e 7be1 323e bc39 d13e
00000080: 6ccc aa3e d458 393c 1ca4 b03e 62dd 823e
00000090: 2827 ecbe 99a9 c3be d3ab 11be 80a7 babe
000000a0: 21bc 883e b83e 193e a967 90bd 1551 f73e
000000b0: 54f9 d4be bc9b 91bd eb1f 663e b7ca ca3e
000000c0: f2b1 adbe 482f a03c f85d 5c3e e810 aebe
000000d0: 509d c9be fbc1 233d f99c 713d 2ce8 8f3e
000000e0: 8fff 4bbd ea3d 443e 993c 4cbe 277d a8bd
000000f0: 09da b2be ab06 5c3e 3eba 0bbc d225 51be
00000100: e22b 293e a675 adbe 7e80 84be 6cb8 19be
00000110: 05f2 72be 445e 37bc 1e8e 63be e151 63be
00000120: ea69 a8be 4e91 873d 3263 833e d2e2 fbbe
00000130: 44cc 8fbe 4229 4c3d ec77 a63c c275 aa3e
00000140: 70d2 51be 59bd 073c e5eb 87be a5e4 23be
00000150: 1bef 053e 30ff ea3d 881f 87be 95df a33e
00000160: 55a2 953e 20be 9a3e a689 8e3e 62bf 67be
00000170: de6b d6be f1b2 913e 44ae f7bd c7b3 d83e
00000180: f01d 65be bb7f 9bbe 1c08 a23e e5fe 913e
00000190: 0831 a8be e788 cb3e 0652 aa3d 7843 7cbe
000001a0: 01f1 69be dc4b 653d 55ee 7c3e 865b 8abd
000001b0: fad9 5b3e b867 ffbd 71ff 74be 7502 ef3d
000001c0: 68f0 16be 5c65 53be 8061 ad3e d1b2 6cbd
000001d0: fa3c 903e ff8d 35be c9ff b1be 3cc1 3abe
000001e0: fe8c 6c3e 8d69 f03e d0a7 193e fd16 89be
000001f0: a77e 313d 6502 18be 71e6 efbe 0b93 863e
00000200: 48d0 213d 6297 8ebe 5223 ac3e 3bf7 443e
00000210: fa81 46be 7bea 8dbc 655b 3b3e a696 a33d
00000220: 8426 2fbe 3175 a2be 501a 9cbe 5bb7 bfbe
00000230: 9602 033e 317b 93bc 2877 313e 7894 bebd
00000240: b7b0 5a3d 0116 8e3d 3385 d63e 0c2d b3be
00000250: 9318 b43e 7c80 c33e 13e3 1abd 4fca 10be
00000260: 7055 633e c534 9fbc 831d 683e c7fb 773e
00000270: 428c 833e deaf 99be 6abb abbe 5ff5 ccbe
00000280: 2084 5cbd c574 79bd 855a 2c3e 0208 15be
00000290: 0459 b7be 0eb7 61be b82a 883e 4dab e1be
000002a0: f39b 073d 5cdb ce3e bb1b 4dbe 2ed1 3b3c
000002b0: d42b 59be 40e5 d73e 3725 773e 2ae0 f2be
000002c0: ff82 6e3e 0998 afbc 3949 283e b4ed f3bb
000002d0: fb5b 543e 61ea abbd 5766 6a3e 987e 0fbe
000002e0: eb81 903e 369e 6dbd 903b 9e3e f5be 143c
000002f0: 9184 9dbb b9cd c23e 1051 59bd 11d7 693e
00000300: 93c8 b53d e43d d63d 51d4 b2be e55f f2bd
00000310: eb93 8bbe 3598 a83d d954 25bd a66d 9abe
00000320: 2ed5 a33d 3dc9 a43e 105b 84be 2bd2 a53d
00000330: 7558 823d 5274 993e 411d aa3e 8cae d33d
00000340: 6790 98be 6139 0ebe 0df2 cabe abb6 9e3e
00000350: e02c 99be fb88 753e 0843 ddbe 03e5 9dbe
00000360: 8b85 a0be 1ef6 e93d fb5e 803e 3117 8fbe
00000370: ea32 3f3d 075a 483e 7d12 cfbd 9f9f 933d
00000380: fab7 c8be a755 d2be 9f51 f7be 27d6 21be
00000390: eabf d63d 6f0e d1bd 0a40 803c 48fe d2bd
000003a0: ac58 653e 4988 a7be 10e2 563d 49c4 993d
000003b0: 6063 2bbd cafb 663e 7387 483d 3c5b a3be
000003c0: 2550 50bd eaf2 6dbe 6186 adbd 2602 ddbe
000003d0: 9986 37be 37bd cabe 4b1b 74be 81bf 02bd
000003e0: 92cb 8ebd b0fc 8cbe 168d 303d 10c5 99bd
000003f0: 066f 79be 1c52 ac3e fd01 87be 1c3d bfbb
0.119883284 -0.21412584 -0.018680722 -0.20686236 0.41406238 -0.2536648 -0.04405541 -0.21643783
0.32475784 0.12053499 -0.03464935 -0.3779174 0.028756114 -0.18537958 -0.2567635 -0.14964324
0.20155014 -0.2224213 -0.031002164 -0.09872887 -0.26901442 0.24812557 0.1366994 -0.016282653
0.36247763 0.1986827 0.21006829 0.30021116 0.18484811 0.47514328 0.17468826 0.4086436
0.33359087 0.011312682 0.34500206 0.25559527 -0.46123624 -0.3821533 -0.14225702 -0.36455917
0.2670603 0.14965332 -0.070510216 0.48304048 -0.41596472 -0.07109782 0.22473113 0.39607784
-0.33924824 0.019553795 0.21520221 -0.33997273 -0.39377832 0.039979916 0.05898759 0.2810682
-0.049804267 0.19164243 -0.19944991 -0.08226996 -0.34931973 0.21486919 -0.00852829 -0.20424584
0.16520646 -0.3387882 -0.25879282 -0.15011758 -0.23725136 -0.011191908 -0.22222182 -0.22199203
-0.32893306 0.066195115 0.25661618 -0.49196488 -0.2808553 0.049844034 0.020320855 0.33292967
-0.20490432 0.00828489 -0.2654716 -0.1600519 0.13079493 0.114744544 -0.26391244 0.32006517
0.29225412 0.3022318 0.27839392 -0.226316 -0.4187917 0.28456834 -0.120937854 0.4232466
-0.22374701 -0.30370888 0.31646812 0.28514782 -0.32849908 0.39752886 0.08316426 -0.24635112
-0.22845842 0.05598055 0.24700291 -0.06755738 0.2146987 -0.12470955 -0.23925568 0.116703905
-0.14740145 -0.20644134 0.3386345 -0.05778772 0.2817152 -0.17729948 -0.3476546 -0.18237776
0.23100659 0.4695553 0.15005422 -0.2677535 0.043333676 -0.14844663 -0.468555 0.2628406
0.039505273 -0.2784987 0.33620697 0.19234936 -0.1938552 -0.017323723 0.18296583 0.07987718
-0.17104536 -0.31730035 -0.30488825 -0.37444577 0.12793955 -0.018003078 0.17330611 -0.09305662
0.053391185 0.06937791 0.41898498 -0.34995306 0.35175 0.38183963 -0.03781421 -0.14139675
0.2220056 -0.019434342 0.22667508 0.24217139 0.25692946 -0.3001699 -0.33541423 -0.40030953
-0.05383694 -0.060902376 0.16831405 -0.14553836 -0.358101 -0.22042486 0.26595092 -0.44076005
0.03310771 0.40401733 -0.2003011 0.011463447 -0.21208125 0.4216709 0.2413529 -0.4743665
0.23292159 -0.0214348 0.16434182 -0.007444108 0.20738213 -0.083943136 0.22890602 -0.14013135
0.2822412 -0.05801221 0.30904818 0.009078731 -0.004807063 0.3804758 -0.053055823 0.22835948
0.08876147 0.104610234 -0.3492761 -0.11834697 -0.2726129 0.08232156 -0.04036412 -0.3016178
0.07999645 0.32184783 -0.25850725 0.08096727 0.06364528 0.29971558 0.33225444 0.103360265
-0.2979767 -0.13889076 -0.39637795 0.3099874 -0.2991705 0.23978035 -0.43215203 -0.30838785
-0.31351885 0.11423896 0.25072464 -0.2794738 0.046679415 0.19565593 -0.10110948 0.0720818
-0.39202863 -0.41080973 -0.4830446 -0.15804349 0.104858235 -0.10207831 0.015655536 -0.103024065
0.22397107 -0.32721165 0.052461684 0.075081415 -0.04184282 0.22556987 0.0489573 -0.31905544
-0.05085768 -0.23237196 -0.08472896 -0.43165702 -0.17922439 -0.39597484 -0.23838536 -0.031920914
-0.06972422 -0.27536535 0.0431033 -0.0750829 -0.24358758 0.33656394 -0.26368704 -0.005836142

l2.weight f4 [256, 256]
00000000: e061 883d edd6 49be 92c1 40bd 418c 8ebe
00000010: d334 7fbd 03a7 3a3e dd7f 04be 54a1 a0bc
00000020: 2176 8fbd d979 2f3d c6ca 8a3f a652 58bf
00000030: 89c4 803d 3ca6 1e3e 709d 063d 3fe7 52be
00000040: ea4e 033f e92a 143e 7d3e 7c3d ecda bdbc
00000050: f9d1 023e 3ed3 903d ab10 4a3d a861 9b3e
00000060: b9f3 05be ec31 273d 2dc6 e13c ab8d 8cbc
00000070: a31a a53c 291a c73e c405 4c3d 0c42 c5be
00000080: 7604 aa3e 36fa e33e 9853 513d 1817 a03e
00000090: 7b12 9a3d 9a4b 5fbd ab96 c03d d035 16bd
000000a0: c4f6 b73d 1068 e2be 0415 eebe 0bd5 c43c
000000b0: 9498 d8be 26da 6e3e 5200 ebbc 0e33 5abd
000000c0: 63ce 8abc 79d9 563c eca7 ca3c 704f 31bc
000000d0: 3494 9fbd 2bef 333e e317 763f 7111 9d3c
000000e0: c847 69bc 7f84 2d3a 98a2 2e3e b2fc 303e
000000f0: 2014 133c fa0a 9d3f a58c 8c3d c87c 963e
00000100: 9b29 863e eeae 04bd 9404 a3bd 7c46 f53c
00000110: 7846 d4bd 1dd2 4d3e c979 11bf 53c5 5ebe
00000120: 5c5b dd3e f011 1dbf 2850 99bd 3ea4 bdbd
00000130: a8e5 2ebd 763c 21be 2ee5 893d 706f 78bd
00000140: 5a2e 0e3d f9a0 23bb 1124 a1be f26b f5bd
00000150: 548d 943d 858f d53d 2b91 e93e 4807 c3bd
00000160: 1183 b13d 6573 033f d822 d6be 98d6 65bc
00000170: edfc 893d 94b1 5fbd 5976 3f3e b839 f63c
00000180: 2a52 14be 7444 b0bc ce8d 333d 5471 4d3d
00000190: 4546 973d f655 20be dd35 363f 6e35 9bbc
000001a0: a61c a43b e194 a5bd 8ac8 ccbe 1acb 2ebe
000001b0: f0c6 2a3f a0cc 4c3d 75bb 073f caa9 7d3d
000001c0: d290 0abd 5e1c 153d a0bf 66bd 7453 54be
000001d0: d022 0a3e 6894 e73c 611e 0c3e 3546 53be
000001e0: d416 253e 7bed dfbd e81b c8bc 3c20 f4bd
000001f0: 4c2b acbd 5e97 a43d e8be 9cbf 8a79 373e
00000200: 10ef c4bc 7038 2a3c ebf5 7d3d ff23 63bb
00000210: d507 d73d 29c5 393f dbb1 263f 2c58 38bd
00000220: aaf0 24bf 9391 fb3e e413 90be 6067 10be
00000230: 5287 743e 256d c3bc 162f 84be 096d 743c
00000240: 37e4 bd3d f8e7 f2bc 5368 603d 8eaf acbb
00000250: 1bc6 0ebe d255 41bc 0f09 553e 8520 2abf
00000260: 76b4 1d3d 0088 3cbe 1e3e 3b3d 6bf3 7a3c
00000270: 86d0 22bd 4c97 bbbc 0eaa 843c edce 6a3e
00000280: 1075 a6bc 787a 473e 91b9 273e 7967 cbbe
00000290: 9763 2fbe 418a abbe d27a 953d 2c04 1b3e
000002a0: 2247 893c e71a 00be f016 3a3e 25e9 053e
000002b0: 234e c93e f580 de3c 8a1e cdbc bd52 123e
000002c0: 8b7f f9be 643d e1be 01f0 9cbc 5323 48be
000002d0: 87af 50bd d32c 9cbe 9fa0 bdbc ec22 6f3d
000002e0: 98e7 173e f207 14bc 3350 d9bc 7619 973d
000002f0: cb5f d33e 5630 8e3d 971e ebbd c060 093e
00000300: 3902 c33c c72b 5b3e 827b 38be f946 eb3d
00000310: add0 38be 4cd7 eabd d8fd bebe 1608 91bc
00000320: 8d54 ca3e bcb4 b5bd 4fb5 3bbe c994 7d3e
00000330: 8295 023e 7368 ac3d e4b2 803d 128a 8abd
00000340: 4d46 da3e 37d5 8f3e f084 dd3c 3448 ecbd
00000350: 091e 833e cf75 933e 366b 733f de1a 2dbe
00000360: f950 56be 64fb 493c cf51 bebd ae59 8ebf
00000370: c781 9fbd d168 eb3d 5b38 12bd 10f3 86bd
00000380: 4c3f 21bd 5005 ddbd 4f8e a0bc 132b 9d3d
00000390: 44ac 65bb 28c6 c03d ee5c 32be b4af 903c
000003a0: 8e32 c53b 050c 9bbe f9ae 843d d346 47be
000003b0: 0016 40bc 2747 b43d b20a b7be d8d0 823c
000003c0: 3719 5cbd b18c a8bd 46a4 17bd 829f 343f
000003d0: 5e5c b6bd 28a6 843c 52c1 26bd 91fd b73e
000003e0: 98d8 443f 6ebd f9be 1467 f0be e422 803c
000003f0: 8c78 a6bc 7826 a4be 3c01 9c3c c174 9fbc
0.06659293 -0.19710894 -0.047059603 -0.2784138 -0.062306236 0.18227772 -0.12939401 -0.019608177
-0.07004953 0.042840812 1.0843132 -0.8450111 0.06287486 0.15493101 0.032864988 -0.20596026
0.5129229 0.14469494 0.06158303 -0.02317568 0.1277541 0.07071541 0.049332302 0.30347943
-0.13081254 0.040819094 0.027560318 -0.017157396 0.020154303 0.38887146 0.049810186 -0.38526952
0.33206528 0.44526833 0.05110511 0.3126762 0.07523056 -0.05451546 0.09403738 -0.036672413
0.08982614 -0.44220018 -0.4650041 0.024027368 -0.42303908 0.23325405 -0.028686676 -0.053271346
-0.016944116 0.013113373 0.024738275 -0.010822162 -0.077919394 0.17571704 0.961302 0.019173356
-0.014238305 0.000661917 0.17054212 0.17283896 0.008976966 1.2268975 0.06862763 0.29392076
0.26203617 -0.03239339 -0.079598576 0.029940836 -0.10365003 0.20099683 -0.56826454 -0.2175496
0.43233764 -0.61355495 -0.07485992 -0.09259842 -0.042699486 -0.1574572 0.06733166 -0.06065315
0.034712173 -0.0024967773 -0.3147283 -0.119834796 0.07253519 0.10427765 0.45618567 -0.09522873
0.08667577 0.51347953 -0.4182346 -0.014028214 0.06737695 -0.05461271 0.1869749 0.03005682
-0.14484468 -0.021517016 0.043836407 0.050156906 0.0738645 -0.15657791 0.7117594 -0.018946376
0.005008298 -0.08085037 -0.3999675 -0.17069665 0.66709805 0.049999833 0.5302041 0.0619295
-0.033829518 0.036404006 -0.05633509 -0.2073496 0.13489842 0.028269008 0.13683464 -0.2063225
0.1612199 -0.10933968 -0.02442737 -0.11920211 -0.08406696 0.080366835 -1.224576 0.17917457
-0.024039775 0.010389432 0.062002104 -0.0034658907 0.10499541 0.7256647 0.65115136 -0.045005962
-0.64429724 0.49134502 -0.28140175 -0.14101934 0.23879746 -0.023855755 -0.25817174 0.014918574
0.09272044 -0.029651627 0.05478699 -0.005269951 -0.13942759 -0.011800246 0.20804237 -0.6645587
0.03850218 -0.18411255 0.045713536 0.015316824 -0.039749645 -0.022899292 0.01619437 0.22930498
-0.020319492 0.19480312 0.16379382 -0.3972738 -0.17127834 -0.33503917 0.07298817 0.1513831
0.016757552 -0.12510262 0.18172812 0.13077219 0.39317426 0.0271611 -0.025038976 0.14289375
-0.4873012 -0.4399215 -0.019157412 -0.19544725 -0.050948646 -0.30502948 -0.02314788 0.058382913
0.1483444 -0.009035097 -0.0265275 0.07377903 0.41284022 0.06942813 -0.11480444 0.13415813
0.02380477 0.21403418 -0.18015864 0.11488146 -0.18048353 -0.11466846 -0.37303042 -0.017704051
0.39517632 -0.08872363 -0.18330882 0.24763788 0.12752345 0.084183596 0.06284121 -0.06764616
0.4263176 0.28092358 0.027040929 -0.11537209 0.25608853 0.28800818 0.95085466 -0.1690478
-0.20929326 0.012328003 -0.092929475 -1.1121118 -0.07788425 0.114946015 -0.035698276 -0.06589329
-0.039367005 -0.10792029 -0.019599108 0.076742314 -0.0035045305 0.09412795 -0.17418262 0.017661907
0.0060179895 -0.30282608 0.06478686 -0.19460611 -0.011723995 0.08802634 -0.35750347 0.015968725
-0.053734984 -0.0822996 -0.037021898 0.7055589 -0.089043364 0.01619251 -0.04071171 0.35935643
0.76892996 -0.48777336 -0.46953642 0.015641637 -0.020321153 -0.320606 0.019043557 -0.019464852

l2.bias f4 [256]
00000000: 13ab 09bd 26d4 1bbd 0a99 99bd 0daa 2f3d
00000010: 10d0 cfbb 3494 6cbb 9fd7 493c 438b 093e
00000020: 8337 6abd 81b2 0b3d f487 42ba 9679 323d
00000030: ea43 4c3e e6c7 d6bc b43d 57bd 3619 a1bd
00000040: 5535 dc3c 79c0 c83c 6e59 c7bc 0db1 033c
00000050: a00e 3abd 4bc2 c0bc 3aa0 80bd 30ab 823c
00000060: 8eac 9a3d 9a04 60bd 5dae 7bbd bd1f b63d
00000070: 7071 253d 2c43 ca3c 8f48 8cbd 32b1 023d
00000080: 4623 253d e9a1 233d 2df8 87bd c16d 643d
00000090: 0deb ddbc 7125 103d 877a b4bc a47a 773d
000000a0: af3b c7bc bdf3 713c d057 19bc 11e0 403d
000000b0: ee45 ac3d 3a42 84bd 360b 0cbc 813a 493d
000000c0: 8d04 84bd f37b f53c 2315 8ebd 9382 d73b
000000d0: dd58 29bd e404 2ebd 5d5b 50bc ead5 7ebd
000000e0: d28e 5ebc aac2 19bd 77f7 83bd aca6 2ebd
000000f0: 4c62 4dba 62f9 13bd 6b3a c5bb 4150 77bd
00000100: 8a84 e33d 87f7 b6ba a4e1 273d d8fe 213d
00000110: 0070 f03c fd51 38bd 3d47 ecbd a72d fe3d
00000120: eba8 5fbd 9bd5 febc 48c1 48ba 5cc3 d93b
00000130: f2c1 b13d 2f73 2cbd 57e4 bf3b 3a3a 453d
00000140: 3fde 36bc 1b0f 2d3e 0f58 583d aa7b e8bc
00000150: 27a2 5d3d 70ba dcbb 1d38 bfbd 0f1e 203e
00000160: 9866 a5bc 88ae e2bb bae6 70bd 43e9 10bc
00000170: 9d65 8b3b 7928 89bc 72d4 8cbc 852b 2abd
00000180: 1eee 903d d73d 3bbd 38c4 96bc 7def 613d
00000190: 278b 7cbc 5f02 063d a1f1 9c3d 9955 43bd
000001a0: 6b6a 473d a76f 38bd 682e 4dbe 8645 51bd
000001b0: 62ca 9dbd a897 04bd 099a 7ebd 617e 53bb
000001c0: 7869 14bd b745 053c 31b7 313c 1452 47bd
000001d0: 6202 433c 613a 46bd b193 3d3e a33a 0abd
000001e0: 0066 5fbb cdeb 8ebd aa94 64bc 9981 fd3c
000001f0: ef1a a7bc b2f0 3bbd df8f 2dbd 357e 083e
00000200: 4f71 113c 556a 8bbd 4608 59bb 95e5 16bd
00000210: d7b2 abbc cdfb f5bb b14e 9cbd 5cd1 d8bc
00000220: 945b d6bc 931e a63c 10a3 44be 65b7 febc
00000230: 2784 d23b 7dfd 803d 3489 30bd 4aef c63d
00000240: 3723 46bd 4e7b 323d bf96 99bb 4fad 353c
00000250: 2fe6 63bd 7d9a e63d 8fae 20bb d878 8d3d
00000260: 6fe1 97bd 9658 333b 9eba 2c3c 0296 1fbd
00000270: 5e52 87bd 7dd8 76bd 724c 30bc 6ad5 a43d
00000280: 3094 173d bcd0 0cbc a79d 593c d8c9 8dbd
00000290: fb47 6bbc a332 893b da77 ef3d 7a05 0b3e
000002a0: 4dd3 0c3e 63c8 8bbd 8096 1f3e 9467 363c
000002b0: 0666 ccbc d889 3e3c 7e87 31bd 30e5 3cbd
000002c0: 9539 393b bdf9 aebc e07e ae3c d70f b4bd
000002d0: 0d94 f43b c1fa ed3b a614 44bc 6c59 c03d
000002e0: a7f5 4dbd 376f e83c 75e1 463d ddc5 8ebd
000002f0: bdf5 103c 86d6 83bc 8556 703c 2f8c c0bc
00000300: bcc8 d93c 6d7b 3ebd 3b14 d2bc 2b67 a4bd
00000310: c60c 85bd 8fe8 b6bc c7e7 e33d be1c ce3d
00000320: 70c7 733d ce35 80bc ca70 29bd ba19 ed3d
00000330: 069e 043c 0f3a 603d 29d9 613d 1030 d53d
00000340: 5c40 a23c 2abe b13c afdf 7bbc 3e53 8ebc
00000350: 09b4 4e3d 17df 2e3d 81c0 83bc f548 863c
00000360: f3f0 a03d 12a2 01bd 9018 c9ba e979 4d3d
00000370: cc4d d73c f452 3ebd e107 19bd 82d4 b3bd
00000380: 2ad5 17bd 79d1 f5bc 0fbb 183d d65e 323d
00000390: 5cbe 5ebd a24c e2bc 81b7 f73c 98bb 69bd
000003a0: 1597 d43c 25d2 16bd 9c6f 813c 859f 7cbd
000003b0: 3192 4d3d cf7b 333c 111e 333d 8f39 453d
000003c0: 7ee4 e6bb 64cd 03bc bd8b 89bd 1eee 55bd
000003d0: fb15 8e3c 9bf1 56bd 40c8 d5bc e95f e73d
000003e0: a4bc 0a3d 35a9 38bd 2af9 ac3d d956 adbb
000003f0: b8cf 0c3c 9141 a93d f162 2c3d df3d a0bd
-0.033610415 -0.038044117 -0.07499893 0.042886782 -0.0063419417 -0.0036099078 0.0123194745 0.1343203
-0.057181846 0.03410578 -0.0007420771 0.043572985 0.19947782 -0.026218366 -0.05254908 -0.07866137
0.0268809 0.02450584 -0.024334636 0.008037818 -0.045424104 -0.023530146 -0.06280561 0.01595077
0.075524434 -0.05469189 -0.061445583 0.08892772 0.040391386 0.024690233 -0.06849777 0.031907268
0.040316842 0.03994933 -0.06639133 0.055768732 -0.02708962 0.035191957 -0.022031082 0.060419694
-0.024320452 0.014767584 -0.009359315 0.047088686 0.084117755 -0.06457944 -0.008547595 0.04912806
-0.064461805 0.02996633 -0.06937625 0.006576845 -0.041344512 -0.042485133 -0.012717095 -0.062215723
-0.013583856 -0.03753916 -0.064436845 -0.04263942 -0.0007834777 -0.0361265 -0.006018927 -0.06037927
0.11109264 -0.0013959267 0.040986672 0.03954968 0.02935028 -0.045000065 -0.11537025 0.12411051
-0.054604452 -0.031107714 -0.00076581957 0.006645603 0.0867957 -0.042102035 0.0058560777 0.048151232
-0.011161386 0.16900294 0.052818354 -0.02837928 0.05410972 -0.0067360923 -0.09336875 0.15636466
-0.020190522 -0.0069177784 -0.058813788 -0.008844676 0.0042540566 -0.016742932 -0.017191146 -0.04154541
0.07076667 -0.045713272 -0.018404111 0.055160034 -0.015414036 0.032717105 0.076632746 -0.047689054
0.048685472 -0.045028355 -0.20037234 -0.051091693 -0.07704617 -0.032371193 -0.062158618 -0.0032271373
-0.036233395 0.008134297 0.010846899 -0.04866226 0.011902424 -0.04839552 0.18513371 -0.033747327
-0.0034087896 -0.06978569 -0.01395146 0.030945586 -0.020398585 -0.04588384 -0.042373534 0.13329394
0.0088771125 -0.068073906 -0.0033116504 -0.03684004 -0.0209593 -0.0075068236 -0.07632197 -0.026467018
-0.026166715 0.02027825 -0.19202828 -0.031093309 0.006424445 0.06298349 -0.043099597 0.097136095
-0.048373427 0.043574624 -0.00468716 0.011088683 -0.055639442 0.11259935 -0.0024518108 0.06907815
-0.07416045 0.0027366034 0.01054254 -0.038961418 -0.06607507 -0.060265053 -0.0107604135 0.08048518
0.037006557 -0.008594688 0.013282216 -0.06923264 -0.014360423 0.0041869446 0.11692782 0.13576308
0.1375248 -0.0682533 0.15584755 0.011133093 -0.024950992 0.011629544 -0.043342106 -0.046117008
0.0028263081 -0.021359319 0.021300733 -0.08792084 0.007463938 0.007262558 -0.011967814 0.09392056
-0.0502831 0.028373344 0.048554856 -0.06971333 0.008847651 -0.016093504 0.014669065 -0.023504345
0.026584975 -0.046504427 -0.025644412 -0.0802749 -0.06496577 -0.02232769 0.111281924 0.10064076
0.05951637 -0.015650656 -0.04136733 0.115771726 0.008094316 0.05474287 0.05513874 0.10409558
0.01980608 0.021697123 -0.015373155 -0.017373677 0.050464664 0.042693224 -0.016083004 0.01639221
0.078584574 -0.031648703 -0.0015342403 0.05016509 0.026282214 -0.04646583 -0.03736103 -0.08780767
-0.037068523 -0.03000711 0.037287768 0.043547474 -0.05438076 -0.027624432 0.030238869 -0.05706367
0.025950948 -0.036821503 0.01580029 -0.061675567 0.050188247 0.010954811 0.043729845 0.048150595
-0.0070462814 -0.008044574 -0.06716106 -0.05222904 0.017344465 -0.052476507 -0.026096463 0.1129759
0.033871308 -0.045083243 0.08445962 -0.005289894 0.008594446 0.08264459 0.042086545 -0.07824301

l3.weight f4 [2, 256]
00000000: 34ce 183c 13f2 bebe 2020 5dbe f937 563b
00000010: b991 9dba 2131 c23e 2f8a cd3c 73dd 6fbf
00000020: 8f56 623c 67e9 643e 8a9c b6bb b6e7 2a3e
00000030: 334e 553e 9ce4 5f3b 88bb d33d 5479 173b
00000040: fa95 723c 5c33 fd3e 2a9e b53b ea7f 683e
00000050: 7e60 653b 810e 9bbe d5d8 6d3c b537 863e
00000060: 2d5c d7be 4bd3 5e3b a91c 9abb 1a89 993e
00000070: 0499 273e 0a45 f43d 9ac5 5a3d 376a b5bc
00000080: 05f8 a03f 01f6 2c3e 064f 143c f578 4cbe
00000090: 7924 b5bb e00a fa3a bdd1 963e a731 88be
000000a0: d823 523d dec7 2d3e 8902 0bbc c63f 073f
000000b0: 7690 ad3e baf3 243d 5074 a6bb 60b8 80bd
000000c0: e176 f43b 72c3 dfbb 3b65 4a3f e2ec b0b7
000000d0: 897d d5bb ad1e 08bc 5d5d c9ba 883a 5ebc
000000e0: e3e9 ed3c d0d8 e5bb e021 dd3c 666c fb3d
000000f0: 5d91 2c3c b745 883c 0c56 cbbb e10b 683e
00000100: 066b a3be 97b9 0dbc 9a35 933b 89f1 4d3d
00000110: 5cba 343a e987 6b3b ff14 0ac0 6b7b a8be
00000120: 0d0c 053c 726d 7a3e 497b 13be 1131 ccba
00000130: 5d02 a9bd c65c 9f3b dfd0 24bc e03c 2d39
00000140: dbcf d13b 91e8 b5be bf2b f43e 00b6 3eba
00000150: 8e2b c4bd 4bb8 87bc 87b9 fd3c c08f f9bb
00000160: a6f0 253c 40be 05bc bf21 b3bb 45cf babc
00000170: e839 a33a 8bb6 0b3c e3f7 74bb 4f3c 01bc
00000180: 4df3 a43e 1ebb ef3d 6e15 a3bb b158 33bf
00000190: 57ce d9bb 3984 b13d 07eb d5bd 7beb 683c
000001a0: 445d ca3f d323 21bb d8b8 893f 211c 063c
000001b0: d0a7 0c3e 06c4 8abc 721b 9e3c 8058 cd3a
000001c0: 7875 21bc f0b7 96bc 72dc efbb a910 923b
000001d0: 0279 cb3a b2f5 743e ef5e 9f3f a8b0 603d
000001e0: dd72 53bf 8a06 b63c 0616 3e3c aba0 b6bd
000001f0: 49ab 003c 557f 083e 3cfb d03e 3a6c a7be
00000200: e343 7cbb d893 01bc 432c d83d e49c dc3c
00000210: caee 1a3d 0aca 843c 55b4 903e df0c 2ebc
00000220: 6360 1fbb 0167 293e 809b 04c0 77b4 fcba
00000230: d351 babb 6640 cf3d 8990 aa3c 3043 0b3e
00000240: 50ab d3ba d0aa f73b fc62 093e 5ee9 63bb
00000250: e4dc cdbb 5e4a aebe eb90 e03c 2f94 2dbf
00000260: 4a2d ce3c 1b59 4a3e dd2c 513c 0a58 a8bc
00000270: b69b c13b 23f8 11bc 5df5 2bbb 98c9 a8bd
00000280: ee53 ad3c e24a ea3d 9473 053b bbf7 c0ba
00000290: 1e29 993b 8dbf 083c 0424 28be cef7 0f3e
000002a0: 3897 44be f58f 203c e69e b6be d693 aa3b
000002b0: 08c7 4e3c 31db fe3d 2864 5abb c318 cbbb
000002c0: ae81 283d 9b96 1f3d 05cf 033c b1a5 adbf
000002d0: 526a 06bc 96bd 073c f7ec bbbc 1d3b f23d
000002e0: ac21 7a3d 9ac4 723c a465 6eb6 21ad f33c
000002f0: 921e d83b 970e 183a 1d55 2f3e 5099 ac3e
00000300: a3c0 ac3e 416e d33b 1a47 0b3d e0ed 2dbe
00000310: e5e8 8c3b bab5 193c a997 60be 6300 81bf
00000320: 7829 dcbe bf97 9fbd 6aac b43e df97 8abe
00000330: 163f 0c3c d897 2bbe 54cb 163f 2736 833d
00000340: ef3e 9cbe 8c41 933e 3819 41bf 0057 033c
00000350: 3ad6 c4bb 30d8 cc3d efdf 273a d927 b63c
00000360: 66c9 d83e 630f ae3a 2b92 2d3f b06a 493d
00000370: 8662 073c 5f8d 1dbf 1c84 753e eafd 103d
00000380: 2371 8c3c 7b7b ed3b 3158 833b 9bfa 383f
00000390: 0c48 563d e094 5d3e 97c9 57bc dc83 d43e
000003a0: 1de1 353d aecb a03f 08d8 f83d 027e 173c
000003b0: b422 8e3b d78f c33c 8164 053a 59d0 d1be
000003c0: d4c8 87bb 6b3a c9be d937 24bd f7e4 2ebb
000003d0: 984e df3d 0e16 6f3b 14a5 3abb 0beb d6bd
000003e0: b8c1 b53d 5844 e23b 8f19 3f3e e92e 393b
000003f0: d351 1c3d 4303 ae3e e99f 85bc 0a7a 1dbf
0.009326506 -0.37294063 -0.21594286 0.003268717 -0.0012021578 0.37928107 0.025090305 -0.9369728
0.0138145825 0.22354661 -0.00557286 0.16689953 0.20830612 0.0034163361 0.10338503 0.0023113089
0.014806265 0.49453247 0.0055425363 0.22705045 0.003500014 -0.30284503 0.014517029 0.26214376
-0.42062512 0.0034000452 -0.0047031236 0.29987413 0.16366965 0.11927231 0.053411104 -0.022145374
1.257569 0.16890718 0.009052044 -0.19968016 -0.0055280295 0.0019076727 0.29456893 -0.26600382
0.051303715 0.16970775 -0.008484491 0.52831686 0.33899277 0.0402715 -0.0050797835 -0.06285167
0.0074604605 -0.006828719 0.79060715 -2.1091142e-05 -0.006515209 -0.008308095 -0.0015362907 -0.01356376
0.02904219 -0.0070143715 0.026993692 0.12276535 0.010532704 0.016634805 -0.006205326 0.22660781
-0.3191759 -0.008650205 0.004492474 0.050279174 0.0006894225 0.0035939163 -2.1575315 -0.3290666
0.008120549 0.24455813 -0.14402498 -0.0015578588 -0.08252404 0.0048633544 -0.010059564 0.00016521243
0.006402952 -0.35528997 0.47689626 -0.0007275045 -0.0957862 -0.01656737 0.030972255 -0.0076160133
0.010128176 -0.008163035 -0.0054666693 -0.022803912 0.001245317 0.008527408 -0.0037379197 -0.007887914
0.32216874 0.11705612 -0.00497692 -0.7005721 -0.006646912 0.086677976 -0.104452185 0.014216299
1.5809712 -0.0024588003 1.0759535 0.008185417 0.1373589 -0.016939174 0.019300196 0.0015666634
-0.009854667 -0.018398255 -0.0073199803 0.0044575525 0.0015523734 0.2392185 1.2450846 0.054855973
-0.8259714 0.022219915 0.0116019305 -0.08917364 0.007853338 0.13329823 0.40816677 -0.32699758
-0.0038492612 -0.007908784 0.10555317 0.02693028 0.037825383 0.016209621 0.28262582 -0.010623186
-0.0024318926 0.16543199 -2.071991 -0.0019279857 -0.0056860237 0.10119705 0.020820873 0.13599849
-0.0016149078 0.0075582042 0.13416666 -0.003477655 -0.0062824357 -0.34041113 0.027412852 -0.67804235
0.02516808 0.19760554 0.012767044 -0.020549793 0.005908455 -0.008909258 -0.0026238777 -0.08241576
0.021158185 0.11440064 0.002036308 -0.0014722267 0.004674091 0.0083464505 -0.16419989 0.14059374
-0.1919831 0.009799947 -0.35668105 0.0052056117 0.012620695 0.12444151 -0.0033323858 -0.00619802
0.041139297 0.038961988 0.008044963 -1.356619 -0.00820406 0.008284947 -0.022940142 0.11827681
0.06106727 0.014817381 -3.5523926e-06 0.02974564 0.006595441 0.0005800514 0.17122312 0.33710718
0.3374072 0.0064523523 0.034003355 -0.16985273 0.004300224 0.009381706 -0.21932854 -1.0078243
-0.43000388 -0.07792615 0.35287791 -0.27068993 0.008559963 -0.16757143 0.58904004 0.06406813
-0.30516765 0.28760946 -0.75429106 0.008016348 -0.006006983 0.10002172 0.0006403913 0.022235798
0.42341155 0.0013279732 0.6780116 0.04917401 0.008263236 -0.6154384 0.23976177 0.0353984
0.017143792 0.007247386 0.004008316 0.72257394 0.052314803 0.21638823 -0.013170621 0.4150685
0.044404138 1.2562158 0.1215058 0.009246351 0.004337633 0.0238723 0.00050885236 -0.4097927
-0.0041438136 -0.39302382 -0.040092323 -0.0026686767 0.109036624 0.0036481651 -0.0028479742 -0.1049405
0.088748395 0.00690512 0.18662094 0.002825672 0.03816397 0.33986863 -0.016311603 -0.6151434

l3.bias f4 [2]
00000000: ac65 b3ba 7e68 8fbc
-0.0013686917 -0.01750588
