matd3_actor.pth (torch, 274992 bytes, 6 tensors)

l1.weight f4 [256, 6]
000000 18 14 b9 be 20 56 66 bd c4 d6 c2 be fc be 70 3e
       -0.36148143 -0.05623448 -0.38054478 0.23510355
000010 e0 1c 06 bd e4 6c 06 3e 37 e2 a9 be 7a d7 88 3e
       -0.03274238 0.13127476 -0.331804 0.26726896
000020 cc 66 b4 be 32 62 81 3e a6 da 74 be 00 af 1d 3e
       -0.35234678 0.2527023 -0.23911533 0.15398788
000030 09 6d 73 be 90 0d 4e 3e b8 98 0d 3e 9e 59 9f 3e
       -0.23772062 0.20122361 0.13827789 0.3112306
000040 cf 00 2b be d4 6c cd 3e 4f 23 a4 be b0 bb 7f 3e
       -0.16699527 0.40122092 -0.32058188 0.24973941
000050 98 84 e6 3d 28 d1 b4 3e f0 50 c7 bc 53 e0 9e be
       0.11255759 0.35315824 -0.024330586 -0.3103052
000060 74 db c4 be 30 be c9 bd 10 3c be 3c 46 bf 8e 3e
       -0.3844868 -0.098507285 0.023222 0.27880305
000070 7e ed 9f be 20 5c 17 be 38 7a 44 bd c0 9a 8b bb
       -0.3123588 -0.14781237 -0.04796812 -0.004260391
000080 80 55 e5 bd a0 7f cf 3d 50 dd 8d bd 50 bc 66 bd
       -0.111979485 0.101317644 -0.06926978 -0.056331933
000090 8d 70 3a be c8 cc 2b 3e b8 00 7e 3e 68 b9 97 bd
       -0.18206997 0.16777337 0.24804962 -0.0740841
0000a0 a8 9b 00 3e 14 90 59 3e 94 c3 7a 3e 86 5e 98 3e
       0.12559378 0.21246368 0.2448867 0.29759616
0000b0 c0 9f 8b bb c2 b6 b7 be e9 42 78 be 8c 14 a1 3e
       -0.004260987 -0.3588162 -0.24244274 0.3146099
0000c0 4a 2f 84 3e 16 ab 9c be 2a ed c0 3e 48 72 95 3e
       0.2581733 -0.30599278 0.37680942 0.29188752
0000d0 44 6e b5 3e 7b 56 a3 be 48 4c 1b 3d 62 f0 b8 be
       0.35435688 -0.31901917 0.037914544 -0.36120898
0000e0 dc 8b 00 be b4 95 5c 3e ac c1 fa bd a7 1b 3e be
       -0.12553352 0.21541482 -0.12243971 -0.18565236
0000f0 ba e3 3b be 1c 48 37 3e d0 5e 43 3e 5c a6 b8 3d
       -0.1834859 0.17898601 0.19079137 0.090161055
000100 28 58 f7 bd 1a 85 c3 3e e6 17 9b 3e 57 89 b8 be
       -0.12077361 0.38187486 0.3029167 -0.36042282
000110 c6 4b c2 be cc d5 21 3e be f7 b9 be 80 0f 69 3d
       -0.37948436 0.15804213 -0.36321825 0.056899548
000120 29 51 33 be 98 56 1f 3e ea f5 b1 3e 14 61 8a be
       -0.17511429 0.15560377 0.3475793 -0.2702719
000130 70 a7 7b 3e 90 04 b1 3d 88 67 46 3e d0 ac e0 3d
       0.24575591 0.08643448 0.19375432 0.10970461
000140 04 a7 a0 be 0a 80 b0 3e e2 1f 16 be 19 aa 8e be
       -0.31377423 0.34472686 -0.146606 -0.2786415
000150 40 8c 4f 3d 80 c4 4e bd 9e 37 a7 3e ce a4 29 be
       0.050670862 -0.050480366 0.3265962 -0.16566774
000160 b8 98 01 be 7f 93 c5 be e2 d3 8e be 4a 14 b7 be
       -0.12655914 -0.38589093 -0.2789603 -0.35757667
000170 a8 ca 53 3e a4 ae 4e be 19 d3 cf be 08 be 39 be
       0.20682776 -0.20183808 -0.40590742 -0.18138897
000180 40 c4 37 bc 40 51 3b bc ac 3f c9 be 04 48 39 3e
       -0.011216223 -0.011432946 -0.3930639 0.18093878
000190 dc 5d 8b be 00 a4 24 3c 00 20 3f bc a8 07 4c 3e
       -0.27220047 0.010048866 -0.011665344 0.19924796
0001a0 80 60 cb bc 9d a1 4a be a0 2f 48 3d 00 75 4a bc
       -0.024826288 -0.19788213 0.048873544 -0.012356997
0001b0 50 4d cd be 8c ef 6a be 5c 09 bc be 8c 65 d6 bd
       -0.40098047 -0.22942942 -0.3672589 -0.10468587
0001c0 e8 e3 bc be 1c 47 55 3e e0 36 dc bd e8 ea 9c 3e
       -0.3689263 0.20827907 -0.10752654 0.3064797
0001d0 b8 e6 99 bd 42 37 0d be c8 c0 ee 3d ec d2 02 3e
       -0.07514709 -0.1379061 0.11657864 0.12775773
0001e0 92 ba 3b be 73 d4 4b be 27 1c 3c be 14 10 19 be
       -0.1833289 -0.19905262 -0.18370114 -0.1494754
0001f0 64 fb a7 3e ca 68 bc be c0 e8 89 be d8 32 cc bd
       0.32808983 -0.36798698 -0.26935387 -0.09970635
000200 9b 37 38 be 48 4a 66 bd d8 68 3f be 8c 05 b3 be
       -0.17989962 -0.056223184 -0.18692338 -0.3496517
000210 45 5d ac be f0 ef ac 3e 28 a0 58 bd e0 0e a3 3e
       -0.3366491 0.33776808 -0.052887112 0.31847286
000220 f0 4f 58 3d 50 5a ee bc 72 ed 53 be f6 ef b4 3e
       0.05281061 -0.029095799 -0.20696047 0.35339326
000230 1e 9c 97 be 70 af af 3e 8e bf 9e 3e f8 bd a3 bd
       -0.29611295 0.34313536 0.3100552 -0.07995218
000240 b4 60 5b be 18 fa 09 3d 80 10 0e 3e cc f8 a5 3e
       -0.21423608 0.033685774 0.13873482 0.3241638
000250 0c 5f af 3e e6 9d a2 be 63 29 9f be 64 95 1d be
       0.34252203 -0.31761092 -0.31086263 -0.15389019
000260 90 b9 e8 3d de 5b 86 3e 60 69 3d be 84 65 86 3e
       0.11363518 0.26241964 -0.18497229 0.26249325
000270 bc de 6f 3e 34 39 c5 3e 92 06 ca 3e 9a 29 c7 3e
       0.2342481 0.38520205 0.39458138 0.38898927
000280 77 46 9e be fc 71 2d 3e b4 fa 78 3e 60 fb 88 be
       -0.30913135 0.16938013 0.24314386 -0.26754284
000290 40 36 f0 3d 78 b3 74 3d 3c 23 cb bd 7e 86 9b be
       0.11729097 0.059741467 -0.0991883 -0.30376047
0002a0 ac 86 7a 3e ea 40 a8 be 9a 79 b9 be c0 50 b1 bb
       0.24465436 -0.32862025 -0.36225587 -0.0054112375
0002b0 fe 6a c5 3e 12 87 1b be 40 54 e0 bb a0 ca 7d be
       0.3855819 -0.15188244 -0.006845981 -0.24784327
0002c0 38 ba aa 3e 56 68 bb 3e 34 e6 cf bd f9 34 31 be
       0.333452 0.3660304 -0.1015133 -0.17305364
0002d0 18 56 77 bd 18 04 82 be ca 6d 9f 3e 70 f1 c8 3e
       -0.06038484 -0.25393748 0.3113845 0.39246702
0002e0 28 08 c7 3d 2a 22 40 be 71 e4 ca be 54 9d 46 3e
       0.097183526 -0.18763033 -0.39627412 0.19395953
0002f0 78 ca 24 3e c0 79 74 3d e0 8b 68 bd 62 26 89 be
       0.1609286 0.059686422 -0.05677402 -0.26787096
000300 58 cf f2 bd 04 07 b8 3e 4c 73 ac 3e f8 e4 4b be
       -0.11855954 0.35942852 0.33681715 -0.19911563
000310 e2 27 9c be ae bb 9c 3e 68 fe 33 3e 2d cf 35 be
       -0.30499178 0.30611938 0.17577517 -0.17754813
000320 00 f9 0d 3e 07 53 9d be e0 44 eb bd 9c 97 a6 be
       0.13864517 -0.30727407 -0.11487746 -0.32537544
000330 30 53 04 3e a8 a0 49 be 3c 57 77 be 74 56 c5 3e
       0.12922359 -0.19690192 -0.24154371 0.3854252
000340 00 b3 ef bb 0c 0b 8e be ba a7 68 be 38 c0 ab 3d
       -0.0073150396 -0.27742803 -0.22720233 0.08386272
000350 90 6c 7d bd 3c 59 9f 3e b8 21 bc 3e 0a 12 cf 3e
       -0.06187111 0.31122768 0.36744475 0.4044345
000360 35 1b 86 be ca f6 0d be b0 b2 8b 3e 60 09 4a 3c
       -0.26192632 -0.13863674 0.27284765 0.012331337
000370 70 55 ce 3e 08 58 64 3e 9e 36 b3 be e4 a9 a2 bd
       0.4029956 0.22299206 -0.35002607 -0.0794256
000380 e0 a0 49 bc fe 7b 09 be b6 b0 8a be dc ab 8a be
       -0.012306422 -0.13426206 -0.27087945 -0.27084243
000390 44 ae af bd 40 c0 68 3c f0 57 c1 3c da 4d b7 be
       -0.085781604 0.014205992 0.023601502 -0.35801584
0003a0 1c fd 62 3e 99 c5 3e be 1c 22 bd be 2a d4 c8 3e
       0.22166866 -0.18630065 -0.36940086 0.39224368
0003b0 90 30 f3 3c 1a 4c 05 be 62 2d 67 be 7a cb c9 3e
       0.029686242 -0.13017312 -0.22575906 0.39413053
0003c0 78 e2 a7 bd 96 f8 ba be 48 b4 3c bd 7a c1 c9 be
       -0.08197492 -0.3651778 -0.046070367 -0.39405423
0003d0 f4 27 25 3e b4 70 c7 3e d0 51 ac bd 70 56 b5 be
       0.16128522 0.38953173 -0.08414042 -0.3541751
0003e0 ec 50 12 3e a0 6f f0 3c 15 c2 2a be c0 55 b1 3e
       0.14288682 0.029350102 -0.16675599 0.34635735
0003f0 a4 9d 0c 3e 64 17 6b be c0 d2 c9 bb 50 d3 09 3d
       0.1373201 -0.22958142 -0.0061591566 0.03364879

l1.bias f4 [256]
000000 40 44 22 bc 14 32 04 3e 00 ce 1b 3e e0 5e 52 3c
       -0.009903967 0.12909728 0.15215302 0.012840003
000010 e3 5c 3c be 00 97 fd 3d fc d7 6c 3e b6 e1 85 3e
       -0.18394808 0.123823166 0.23129267 0.26148766
000020 64 6f 0f 3e 0c b4 fd bd a2 b5 8f be 64 02 28 3e
       0.14007336 -0.12387857 -0.28068262 0.16407162
000030 50 a5 79 3e e0 2a c2 3c 50 db ac 3e 75 00 6e be
       0.24379468 0.023702085 0.33761072 -0.23242362
000040 dc d7 cd 3e 00 19 0e 3c 70 98 13 3d 36 4d 52 be
       0.4020375 0.008672953 0.036034048 -0.20537266
000050 0c 79 26 3e 56 70 63 be 60 8c 77 3d 30 54 c4 bd
       0.16257113 -0.22210822 0.060436606 -0.0958637
000060 e8 f1 76 3d 30 df c3 3d 6a ee 0b be 48 9a 56 bd
       0.060289294 0.09564054 -0.13665166 -0.052393228
000070 a8 65 cc be 7e b1 b5 be 0f a9 be be 68 bf 49 3e
       -0.39921308 -0.35486978 -0.37238356 0.19701922
000080 c8 f4 ff 3d 9a 7b aa be 78 18 d6 3d 94 1d 3e 3e
       0.1249786 -0.33297426 0.10453886 0.1856597
000090 a6 8e 80 be 74 6c 02 3e 1c 79 4f 3e de aa 2d be
       -0.25108832 0.12736684 0.20261043 -0.16959712
0000a0 dc 2e 94 3e 54 9f 95 bd 14 e5 d0 3e a4 1a 65 3e
       0.28942 -0.0730578 0.40799773 0.22373444
0000b0 20 58 c6 3d 0a ec 42 be 36 ef 2c be c4 6d ca bd
       0.09684777 -0.19035354 -0.16888127 -0.098842174
0000c0 90 0f de 3d e0 00 92 3d d0 e6 6e 3e 0c ee 14 3e
       0.10842812 0.07129073 0.23330235 0.14543933
0000d0 80 50 80 be d2 df bb 3e 10 5d 0e 3e 84 bc 90 3d
       -0.25061417 0.366942 0.13902688 0.070672065
0000e0 24 76 16 be 40 c9 0d 3e 4e 2c ba 3e 94 f3 17 3e
       -0.14693505 0.13846302 0.36361927 0.14839011
0000f0 74 d3 b2 bd 94 fa ad be 6c fc 08 3e 30 66 08 3e
       -0.08731738 -0.33980238 0.13377541 0.13320231
000100 94 12 82 be 7e 4d 82 3e 00 f1 72 3e d4 ad 88 be
       -0.254048 0.25449747 0.23724747 -0.2669512
000110 3a 55 9b be 24 05 52 be 10 b3 84 bd f4 43 87 3e
       -0.3033846 -0.20509773 -0.06479466 0.26419032
000120 40 4b b5 3b cd cc c9 be 00 18 e6 bd a0 2c c5 3c
       0.005532652 -0.39414063 -0.112350464 0.02406913
000130 ec 59 88 bd fc 95 ce be 70 8b 73 bd 00 6d 2d 3d
       -0.06657776 -0.40348804 -0.05945915 0.04234028
000140 92 d0 97 3e 00 29 b0 be a7 51 35 be 50 09 36 be
       0.29651314 -0.3440628 -0.17706929 -0.1777699
000150 40 8a 1c be 18 12 7a bd 90 0d 2f 3d 6a cb a5 3e
       -0.15287113 -0.06105241 0.042737544 0.32381755
000160 28 92 4d bd 00 3d 6c bb 08 27 f2 3d d4 7c b1 3e
       -0.050188214 -0.00360471 0.11823851 0.3466555
000170 10 42 39 bd 81 9b 7b be 98 ba 60 bd 69 20 7e be
       -0.045229018 -0.24571039 -0.05486545 -0.24817051
000180 94 40 a2 3e 2c 0a 58 3e 80 17 81 bd b2 9f 2f be
       0.31689894 0.2109763 -0.063033104 -0.17150763
000190 10 aa 6d be 0c 84 a1 be e0 14 1d bd 6c b3 78 3e
       -0.23209405 -0.31546056 -0.038349986 0.24287194
0001a0 a8 8c 17 3e 80 b1 7c 3b 84 59 a4 3e 78 6d 26 3d
       0.1479975 0.0038557947 0.32099545 0.04063174
0001b0 5c 91 12 3e 40 e2 da 3c b8 c8 83 be 95 0f 3e be
       0.14313263 0.026719213 -0.25739074 -0.18560632
0001c0 64 f1 1d 3e 68 8b f6 3d 9c 8a 5e 3e 0d a3 9b be
       0.15424114 0.120383084 0.21732563 -0.30397835
0001d0 b8 81 7b be 18 57 45 3d 12 63 99 3e 70 33 f3 3d
       -0.24561203 0.048178762 0.29958397 0.11875045
0001e0 10 c4 38 3e 34 d1 ca be d4 3f 68 be 58 b0 0a 3e
       0.18043542 -0.39612734 -0.22680598 0.13543832
0001f0 99 a8 a7 be 6e f2 9b 3e d0 58 82 be 0b 37 70 be
       -0.32745817 0.30458397 -0.25458384 -0.23458497
000200 f5 0b 93 be 1f 3b c8 be f6 24 a3 be 60 8f bd 3e
       -0.2872006 -0.39107606 -0.31864136 0.3702345
000210 60 c9 36 3e ab 71 98 be e4 f1 af be a4 f7 ba 3e
       0.17850256 -0.29774222 -0.34364235 0.3651706
000220 6c e1 db bd b6 99 c0 3e 62 f5 a6 3e d0 a3 f7 bd
       -0.10736355 0.37617272 0.32609087 -0.12091792
000230 08 74 6e bd 00 19 7e bc 68 82 b1 be 40 f4 6f bc
       -0.058216125 -0.01550889 -0.34669805 -0.014645636
000240 84 35 ad 3e bc 72 9b 3e 40 c6 f9 3d 44 57 97 3e
       0.33829892 0.30360973 0.12196016 0.29558766
000250 d8 e2 b7 3e 96 c8 b8 3e 38 ea 4d 3e 3a d9 b6 be
       0.35915256 0.36090535 0.20108879 -0.35712606
000260 a0 91 01 3e 46 57 91 3e e4 39 b1 3d 10 8c 0f 3d
       0.12653208 0.28386897 0.0865362 0.035045683
000270 2a 48 ba 3e f8 14 63 3d 24 17 d3 bd d8 94 75 3e
       0.36383182 0.05543992 -0.10307148 0.2398256
000280 ac 66 d0 bd 24 b5 13 be 70 de dd bd 29 d7 b2 be
       -0.10175833 -0.14424568 -0.10833442 -0.3492978
000290 14 32 8c be 38 45 02 be 92 f8 81 be 08 51 d0 be
       -0.27381957 -0.12721717 -0.25384957 -0.40686822
0002a0 ec 16 9a be e4 2f 3c be 68 f3 1d 3e f2 a1 b1 3e
       -0.30095613 -0.18377644 0.15424883 0.34693867
0002b0 f0 7d 1a bd 08 0c 67 3e 94 a0 03 3e 30 b4 e1 3d
       -0.03771776 0.22563183 0.12854224 0.11020696
0002c0 40 19 6b 3e 60 10 41 bc 98 f1 13 be 44 89 ef bd
       0.22958851 -0.011783689 -0.1444763 -0.11696103
0002d0 b0 d2 13 3d 4c f5 1d 3e 6c 4b c1 3e 60 67 dc 3d
       0.0360896 0.15425605 0.37752855 0.10761905
0002e0 48 e5 45 bd 70 28 54 bd c8 c3 b9 3e 59 d2 2a be
       -0.048314363 -0.051796377 0.36282182 -0.16681804
0002f0 b8 9d bb bd 70 2e 60 bd 00 06 4e 3e 6c 42 20 3e
       -0.09160942 -0.054731786 0.20119476 0.15650338
000300 58 a7 4f 3e 80 17 2a 3d 80 ba 02 bd 12 76 86 be
       0.2027868 0.041526318 -0.03191614 -0.26261955
000310 2c aa 52 3e 26 6e aa be 88 be 6d 3e e8 ff 55 3e
       0.20572728 -0.33287162 0.23217213 0.20898402
000320 e5 bf 22 be 0a be 6d be 10 b2 9d 3d 82 15 9b 3e
       -0.15893514 -0.23217025 0.07699978 0.30289847
000330 d0 d5 b5 bc c2 96 cd be 5c 92 ea bd 88 42 e1 bd
       -0.02219668 -0.40154082 -0.11453697 -0.10999018
000340 70 74 ca 3e e8 68 5c 3d 38 9e c5 be aa 2c 8c be
       0.3954196 0.053810984 -0.38597274 -0.27377826
000350 dc d1 90 3e 8a 2f ba 3e 20 45 90 3d 56 77 7b be
       0.2828511 0.36364394 0.070444345 -0.24557242
000360 00 4c d2 bb 5b b7 7a be 48 1f b3 3e f0 dc f6 bc
       -0.0064177513 -0.24484007 0.34984803 -0.030134648
000370 46 59 bd 3e 00 88 5c bb 0c 9e c7 be 88 00 dd bd
       0.36982173 -0.0033650398 -0.38987768 -0.10791117
000380 00 fc 8b 39 06 7b 72 be 38 16 ea 3d 5c 0f 39 3e
       0.000266999 -0.23679742 0.11430019 0.18072265
000390 78 af 5b 3d 44 0a 19 be 0a 0a 9f 3e 17 d9 b7 be
       0.053634137 -0.14945322 0.31062347 -0.35907814
0003a0 68 2b 67 3e 54 01 1f 3e 10 f2 9e 3e 6c 61 83 be
       0.22575152 0.1552785 0.31044054 -0.25660264
0003b0 f8 4a a1 be a5 fb ca be 90 16 65 bd 72 90 80 3e
       -0.3150251 -0.39645115 -0.05592972 0.25110203
0003c0 34 f1 7c 3e 18 f9 aa be 5a 3a 65 be 2a ec b7 3e
       0.24701387 -0.33393168 -0.2238554 0.35922366
0003d0 e8 88 7d bd d0 a6 1b 3d 6c 1c b2 3e fa de b2 3e
       -0.061898142 0.03800088 0.3478731 0.34935743
0003e0 d0 25 95 3c d4 d8 82 bd 24 d6 38 3e c6 93 bf be
       0.018206507 -0.06389013 0.18050438 -0.3741743
0003f0 08 0e 80 be 8a fa 55 be 6c ea 12 3e cc 06 46 3e
       -0.25010705 -0.20896354 0.14347237 0.1933853

l2.weight f4 [256, 256]
000000 5e 37 05 3d cc 52 16 bd 08 f0 68 bd f0 fa 20 bd
       0.032523505 -0.036700055 -0.056869537 -0.039301813
000010 54 e1 d4 bc 4a 6f 61 3d 52 c8 10 3d 60 3e 18 3b
       -0.025986351 0.055037774 0.03534729 0.0023230538
000020 80 df 48 bb 08 01 1c 3c 0c 9d a4 3c c0 10 7f bb
       -0.0030650795 0.00952173 0.020094417 -0.0038919896
000030 e0 54 63 3d 00 0e 4c 3c fa 4e 10 bd e4 55 00 bd
       0.055500865 0.01245451 -0.035231568 -0.03133191
000040 b0 08 f5 3b 76 3e 04 3d da b1 48 bd 60 53 7e 3b
       0.0074778423 0.03228613 -0.048997737 0.003880702
000050 68 7d c4 3c b2 30 3d 3d 42 f4 2f 3d d0 36 8f bb
       0.02398558 0.046189018 0.04295755 -0.004370548
000060 30 59 0f 3c 64 62 29 3d d4 cf ab 3c 6a e5 75 3d
       0.008749291 0.0413536 0.020973124 0.06003324
000070 d0 d7 d1 bc d0 19 2e 3c c8 22 ab bc 58 a1 76 3d
       -0.025615603 0.010626271 -0.020890608 0.060212463
000080 c2 5f 17 3d fc 63 7a 3d 52 26 75 3d 7c 47 97 bc
       0.036956556 0.06113051 0.059851 -0.018466704
000090 78 af c0 bc a4 a3 3d bd 04 0a 8d 3c 80 6a 81 3a
       -0.02352117 -0.046298638 0.01721669 0.0009873658
0000a0 1a f0 49 bd 68 7d 9b 3c c0 47 12 bc 34 5a e5 3c
       -0.049301244 0.018980697 -0.008928239 0.027997114
0000b0 80 be e3 ba 08 36 bb 3c b8 73 1b 3c 5a b8 42 bd
       -0.0017375499 0.022852913 0.009488039 -0.047539093
0000c0 a8 1c dd bc e8 b4 d3 3c fc ea 47 bd 68 d3 78 bc
       -0.026991203 0.025843099 -0.048808083 -0.015187122
0000d0 1c 29 a2 bc b0 91 46 bd ee 24 4d bd b6 40 3a 3d
       -0.019794993 -0.048478782 -0.050084047 0.04547187
0000e0 c0 dc 31 3c 46 df 3c 3d b8 f0 4a bd e0 05 a2 3c
       0.010855854 0.046111368 -0.049545974 0.019778192
0000f0 fc a7 e3 3c f4 57 ce 3c ba f3 32 bd 2c b2 71 3d
       0.027790062 0.025188424 -0.043689467 0.05900781
000100 80 d5 bb ba 50 02 21 bd 94 85 81 3c d4 d1 b4 3c
       -0.0014330596 -0.039308846 0.015810765 0.02207271
000110 e4 06 3c 3d a8 0a 1d bc aa 0f 19 bd f2 aa 0c 3d
       0.04590501 -0.00958506 -0.037368454 0.034342714
000120 c0 36 58 3b 70 36 39 3d 44 04 c1 bc 6c f0 d3 3c
       0.0032991618 0.04521793 -0.023561604 0.025871478
000130 e8 c4 69 3c fc 01 28 bd fe 8e 3f 3d 00 84 0c 3d
       0.0142681375 -0.041017517 0.046767227 0.034305573
000140 b2 6b 72 3d 6c 8e c8 bc 60 20 a1 3c e4 f0 02 bd
       0.059184738 -0.024481975 0.019668758 -0.031968012
000150 a2 64 50 3d 74 5e 37 bd 9a e4 2b 3d 18 f2 68 3d
       0.05087722 -0.044767812 0.04196606 0.056871504
000160 86 d0 6e bd a8 83 4e 3c 38 92 4b 3c d4 62 50 bd
       -0.058304332 0.0126046315 0.012424998 -0.0508755
000170 ee 23 1f bd 6e bc 0c 3d b0 8a ae bc bc 4b 59 bd
       -0.038852625 0.034359388 -0.021306366 -0.05305074
000180 c2 10 0e bd cc 16 55 bd 58 ae 61 bd 80 7f 49 3a
       -0.03468395 -0.052023694 -0.055097908 0.00076865405
000190 c0 68 d6 3a 1a 64 5e bd 14 b9 4c 3d 4a 56 44 bd
       0.0016358122 -0.054294683 0.04998119 -0.047933854
0001a0 8a 63 3e bd 50 3b 3b 3c 50 2a c2 3c 00 56 d8 bc
       -0.046481647 0.011427715 0.023701817 -0.026408195
0001b0 b6 13 51 3d 40 5d 67 bc e2 a3 72 bd be 94 6d bd
       0.05104419 -0.014121354 -0.059238322 -0.05800318
0001c0 e0 64 86 bb 50 57 d1 bb c8 4c 31 bc ec f9 59 bd
       -0.0041013807 -0.0063885823 -0.010821529 -0.05321686
0001d0 b0 83 d9 bb 70 52 e8 3c 00 dc 15 bc fc 5f 3b bd
       -0.006638013 0.028359622 -0.00914669 -0.045745835
0001e0 7a ff 0b 3d 00 51 1c ba 66 17 3c 3d 14 58 9d bc
       0.03417919 -0.00059629977 0.045920752 -0.019207038
0001f0 90 0b 60 bc ea 34 0c bd 9c 1e 3f bd d0 81 bb bb
       -0.013674632 -0.03423015 -0.04666005 -0.005722262
000200 80 14 8e 3c 54 66 75 3d 22 8c 1d bd d4 26 f2 3c
       0.01734376 0.05991204 -0.03846372 0.02955953
000210 28 08 4c bc 40 d0 d5 ba 30 35 46 3d 5e 51 35 bd
       -0.0124531165 -0.0016312674 0.048390567 -0.04426705
000220 ac 9e 82 3c 78 5f 9e bc e0 ef e0 bb 74 e5 84 bc
       0.015944801 -0.019332632 -0.006864533 -0.016222693
000230 40 03 06 bb ba 29 20 3d 24 ff 50 3d 70 93 cd bc
       -0.0020448714 0.039102294 0.05102457 -0.025094718
000240 80 05 c3 bc 04 3a 89 bc ac 8d 26 bd 08 90 b5 bc
       -0.023806334 -0.016751297 -0.040662453 -0.022163406
000250 c0 44 18 3b 20 51 fa bb c0 02 8e 3c 4a 10 46 3d
       0.0023234338 -0.0076390654 0.017335296 0.04835538
000260 62 a0 52 3d 34 fd 4e 3d 56 c4 11 3d 18 d0 08 bd
       0.051422484 0.050534442 0.03558763 -0.03340158
000270 c8 7d 7b 3c 42 38 7e 3d c2 5a 60 3d ec bf d2 bc
       0.015349813 0.06206537 0.054774053 -0.025726281
000280 00 57 ea ba 72 f8 07 3d 3a f5 2a 3d 0c a3 23 3d
       -0.0017878711 0.03319592 0.041737773 0.039950415
000290 20 23 57 bc a8 7a ad bc 5c 57 7a bd ec 72 c2 bc
       -0.013130933 -0.021176651 -0.06111847 -0.02373644
0002a0 f0 eb 3f bd 48 ca be bc 34 ce 20 bd ec c9 b9 3c
       -0.046855867 -0.023289815 -0.03925915 0.022679292
0002b0 f4 fd 63 bd c8 22 71 3d 0c e1 f4 3c a8 10 28 3c
       -0.05566211 0.05887106 0.029892467 0.010257877
0002c0 88 a7 cc bc 88 57 1f bc 54 99 9f 3c ea 76 6d bd
       -0.024982229 -0.009725459 0.019482292 -0.057974733
0002d0 54 a6 b6 bc 0a 7f 55 3d c8 a6 0e 3d c8 f8 32 bc
       -0.022296108 0.052123107 0.034827024 -0.010923572
0002e0 f6 87 4d 3d 88 9d 4e bd 56 14 3c bd 80 c0 4f ba
       0.05017849 -0.050443202 -0.04591783 -0.0007925108
0002f0 98 25 e9 3c 00 7c 8a ba 0e 46 3d bd bc 20 01 3d
       0.028460309 -0.0010565519 -0.046209387 0.03152536
000300 60 6f ae bc 9e 47 33 3d 14 cc 8e 3c ae e2 06 bd
       -0.021293342 0.04376947 0.017431296 -0.032931022
000310 66 a0 63 bd fa 36 74 3d 24 a2 a0 3c 16 59 29 3d
       -0.05557289 0.059622742 0.019608565 0.041344725
000320 90 97 a8 bc cc 49 16 3d a0 41 25 bb 50 d5 87 bb
       -0.020580083 0.036691472 -0.0025216118 -0.004145302
000330 d6 2d 3f bd 72 b1 53 bd d2 67 3a bd b0 9a e3 3b
       -0.046674572 -0.051682897 -0.045509167 0.0069459304
000340 00 65 2d bb 80 d4 c2 bb 0e 39 21 bd d4 b7 b4 bc
       -0.0026457906 -0.005945742 -0.039361052 -0.022060312
000350 b4 48 2d 3d 18 a6 d1 bc 98 c7 fe bc 88 f5 1e 3c
       0.042305663 -0.025591895 -0.031101033 0.009702094
000360 c8 d9 48 3c f0 6a 8e 3c fa b4 16 bd 40 05 07 bc
       0.012258954 0.017384976 -0.036793686 -0.008240998
000370 f4 f8 bc 3c ba fc 56 bd 28 8c 69 3c 74 e7 55 3d
       0.023067929 -0.052487113 0.014254607 0.052222684
000380 dc a2 9d bc 38 a3 29 3c 0c 3d c2 bc 4c 11 cd bc
       -0.019242696 0.010353856 -0.02371075 -0.025032662
000390 e8 77 a6 bc 30 29 1b bc 14 01 d3 3c e2 14 3f 3d
       -0.020320848 -0.009470269 0.02575735 0.046650775
0003a0 04 21 36 bd 5a 4d 52 bd 8c 06 f8 3c 5c c0 e6 bc
       -0.04446508 -0.0513433 0.03027656 -0.028167896
0003b0 36 7d 17 3d 56 0e 77 3d 3c 72 bc bc 54 eb e0 bc
       0.036984645 0.060316406 -0.02300369 -0.027455963
0003c0 04 c8 1d 3d 40 e4 56 3c 24 5e 49 3d 1c 06 93 3c
       0.038520828 0.0131159425 0.049162045 0.01794725
0003d0 b0 82 06 3c 00 f0 94 3b 20 06 0e 3c 40 38 f6 3a
       0.008209869 0.004545212 0.0086684525 0.0018785074
0003e0 68 90 e0 bc d8 6d 62 bc 7c 24 3a bd 20 b2 60 3b
       -0.027412608 -0.013820134 -0.04544495 0.0034285858
0003f0 d0 e5 39 bc 20 7c db bb c8 b1 79 bc e0 03 de bb
       -0.0113462955 -0.0066981465 -0.01524014 -0.0067753643

l2.bias f4 [256]
000000 70 12 fc 3c de dc 68 3d e0 51 bc 3c f4 58 77 bd
       0.03077051 0.05685126 0.02298826 -0.060387567
000010 34 d0 ee bc 00 43 2e 3b 4a 33 17 bd ca 57 57 bd
       -0.029152013 0.0026590228 -0.036914147 -0.052573957
000020 0c a0 33 bd b4 75 f0 bc b8 5c 48 bd 30 24 7b 3c
       -0.043853804 -0.029353 -0.04891655 0.015328452
000030 56 66 0d bd 20 bc 3c bc e0 47 69 bc 18 20 00 bc
       -0.034521423 -0.011519462 -0.014238328 -0.007820152
000040 74 a7 20 3d 62 58 7f bd 66 19 78 3d ba 8d 03 bd
       0.039222196 -0.062340148 0.060571097 -0.032117583
000050 60 f7 fe bc 02 3e 7d 3d e0 dd 9b 3c 78 1e 50 bd
       -0.031123817 0.061826713 0.019026697 -0.050810307
000060 e4 c7 dc bc 68 f8 11 bc 90 ff b8 3c 40 18 81 3b
       -0.026950784 -0.008909322 0.0225828 0.0039396584
000070 78 86 9c 3c 8c 0d 2e 3d cc b2 de 3c 2c 75 68 3d
       0.019107088 0.042493388 0.027184866 0.05675237
000080 de 76 74 3d fc 6a 3e 3d 98 cb 38 bd 0c 36 85 3c
       0.059683673 0.046488747 -0.045116037 0.016261123
000090 96 45 4d 3d b4 c2 10 bd 80 b9 52 bc e4 c8 a8 bc
       0.05011519 -0.035341933 -0.012861609 -0.020603605
0000a0 80 4a 51 bc b0 c8 b2 3c 76 91 6a bd 08 bf 2a 3d
       -0.01277411 0.02182421 -0.05726763 0.041686088
0000b0 e8 32 5b bd 22 3f 43 3d bc 4b 6c bd 40 84 49 bd
       -0.053515345 0.04766763 -0.057689413 -0.04919839
0000c0 08 d7 1f bd 80 54 53 3d 28 b0 41 bc 10 01 c8 3b
       -0.03902343 0.051594257 -0.011821784 0.0061036423
0000d0 a8 1b 90 bc 6c 71 39 3d b8 02 62 3d ec 04 80 bc
       -0.017591313 0.045274183 0.055178374 -0.015627347
0000e0 76 9f 32 bd 28 ca 15 bc 94 b8 e9 3c e4 ab 49 3d
       -0.043609105 -0.009142436 0.028530397 0.049236193
0000f0 a0 37 04 3d 86 eb 4d bd 04 b5 00 bd 46 79 52 bd
       0.03227961 -0.05027344 -0.03142263 -0.051385187
000100 b0 8c 02 3d 00 94 aa bb 60 95 27 bd 24 90 fc 3c
       0.03187245 -0.0052056313 -0.04091394 0.03083045
000110 9e e5 18 3d e0 54 78 bc 88 c0 6c bc e0 85 2d 3b
       0.037328355 -0.0151569545 -0.0144502 0.00264775
000120 20 33 c1 bb 48 d7 0b bd 16 85 1c 3d 0a f2 04 3d
       -0.005895987 -0.034140855 0.03821286 0.03245739
000130 24 e0 7f 3d 0c ee 9b 3c fc 22 11 bd f4 dd 9b 3c
       0.062469617 0.019034408 -0.035433754 0.019026734
000140 e0 44 3e 3b 6e e0 3f bd 3e 90 33 bd 00 d4 a9 bc
       0.0029032752 -0.046844892 -0.043838732 -0.020730972
000150 e0 13 68 3c 70 42 7f 3d 60 0c 71 bb 8c 14 80 3c
       0.014164895 0.06231922 -0.0036781058 0.015634798
000160 94 ee 66 bd c6 f8 06 3d 00 2b 5d bb 0a 66 40 bd
       -0.05637987 0.032952093 -0.0033747554 -0.046972312
000170 be 0e 6c 3d 36 84 5f 3d 90 d6 74 3d 08 6e 39 3d
       0.057631247 0.054569446 0.059774935 0.04527095
000180 14 fe 44 bd 5c d8 e0 3c 08 e6 af bc 30 ba 61 bc
       -0.04809387 0.027446918 -0.021471992 -0.013777301
000190 00 b4 50 bc dc 4f 4b 3d 20 d4 c0 3c 04 b6 da 3c
       -0.012738228 0.049636707 0.02353865 0.02669812
0001a0 90 7c 00 bd f2 c7 30 3d c0 ae 72 3b 60 74 f0 3b
       -0.031368792 0.043159433 0.0037030429 0.0073380917
0001b0 40 55 35 3c 94 17 f7 3c c4 8e 31 3d 0c bf 84 3c
       0.011067688 0.03016261 0.043349043 0.01620438
0001c0 ce d3 52 3d 00 55 3e bc 90 ae ff bc 80 4e 47 3a
       0.051471524 -0.011616945 -0.031211168 0.0007602945
0001d0 68 7c a1 bc c0 58 fa bc 90 b0 8e 3c 18 16 19 bc
       -0.019712642 -0.030559897 0.017418176 -0.0093436465
0001e0 f6 d4 04 3d d6 a9 7b bd 08 e0 64 bd 7c 6c 5b bd
       0.032429658 -0.061441265 -0.055877715 -0.053570256
0001f0 58 b1 84 bc 6c 5b 25 bd 78 7a 06 3d 00 0a 40 bd
       -0.016197845 -0.04037039 0.03283164 -0.046884537
000200 ec 6b 59 3d 68 f3 d9 bc 40 45 7d bb c0 96 5b 3b
       0.053081438 -0.026605323 -0.0038646013 0.0033506602
000210 90 1c 34 bc 06 56 34 3d 00 ce 26 b9 e0 99 ee bc
       -0.010993138 0.04402735 -0.00015907735 -0.029126108
000220 b8 14 1e bc 4e d1 36 3d 60 5f 22 3d 84 16 9c bc
       -0.009648494 0.044633202 0.039641738 -0.019053705
000230 7e 86 5b bd 38 29 79 bc 2e ab 77 3d 3c b3 c6 3c
       -0.05359506 -0.015207581 0.060465984 0.024255387
000240 38 b4 47 3d d4 4b b5 bc 10 ff 7c bd 80 fe 77 3d
       0.048755854 -0.022130884 -0.061766684 0.060545444
000250 80 fb a1 bb 68 f0 a1 bc 68 65 42 bc 24 67 24 bd
       -0.004943311 -0.019767955 -0.011864997 -0.040137425
000260 1a 04 1c bd 26 5f 12 3d 00 21 22 3a bc 04 30 bd
       -0.03808985 0.035735272 0.0006184727 -0.042973265
000270 c6 42 1d bd 7a 17 00 3d 58 ee 7c bc 80 85 f4 3b
       -0.03839376 0.03127239 -0.015437685 0.0074622035
000280 f8 b1 62 3d 5c dd cc 3c a4 7c 67 bd 70 c0 59 3c
       0.055345505 0.025007896 -0.05651535 0.01329051
000290 e0 14 d5 3b 80 01 74 3b e6 95 26 3d 46 3c 4e 3d
       0.0065027326 0.003723234 0.040670298 0.05035045
0002a0 4e 64 7a 3d 86 3c 63 3d a4 e0 40 3d a4 45 bc 3c
       0.061130814 0.05547764 0.047089234 0.022982426
0002b0 18 b0 be bc 6c c8 23 bd b8 03 50 bd 7c c6 c1 bc
       -0.023277327 -0.03998606 -0.050784796 -0.023654215
0002c0 ee 89 7b bd dc ed 59 bd 80 78 88 3b 80 67 77 3a
       -0.061410837 -0.053205356 0.0041647553 0.0009437725
0002d0 00 e4 da bb 78 ef 0b 3d a6 67 2c bd 28 89 7f bd
       -0.0066800117 0.034163922 -0.042091034 -0.06238666
0002e0 da 98 5a bd 10 1c 4f 3c 8e f3 09 bd a0 78 28 3d
       -0.053368427 0.012640968 -0.033679537 0.041130662
0002f0 e8 a0 6a 3c 8c 10 9a 3c f2 e5 6d 3d 20 1f eb bc
       0.01432059 0.018806718 0.05808062 -0.028701365
000300 0a 7b 4d bd d4 2f d2 3c 20 02 41 3b 02 30 0b 3d
       -0.050166167 0.025657572 0.002945073 0.03398133
000310 e0 64 18 bc 80 3f 9c 3b 70 62 80 bc 8e 3a 02 3d
       -0.009301394 0.004768312 -0.015671939 0.031794123
000320 f6 fc 36 bd ac 8d a5 3c e0 3b fd bc ea 09 0f 3d
       -0.044674836 0.020209156 -0.03091234 0.034921564
000330 e8 e3 33 bc 00 d8 a2 3a 54 65 49 bd cc 0f 90 3c
       -0.01097963 0.0012423992 -0.0491689 0.017585658
000340 90 af 4e bc 68 6d cf bc 26 11 21 3d f8 b1 74 bc
       -0.0126151 -0.025320724 0.039322995 -0.014935009
000350 88 78 98 bc d8 16 b4 3c 28 a7 12 3d 00 b0 8f bc
       -0.018612161 0.021983549 0.035803944 -0.017539978
000360 50 d7 d1 bc 78 b0 6f 3c ae e8 0e bd dc d7 0b bd
       -0.025615364 0.014629476 -0.03488987 -0.034141406
000370 fc 39 87 3c 0c 07 a4 3c d8 16 6b 3d 44 29 17 bd
       0.016507141 0.020022891 0.057394832 -0.03690459
000380 0a 3e 67 bd 62 df 10 bd 58 81 0a 3c 44 aa e8 bc
       -0.05645565 -0.035369284 0.0084536895 -0.028401501
000390 ca 34 28 bd 50 d1 01 bd 4c 82 47 3d 78 b7 a3 3c
       -0.04106597 -0.031693757 0.048708245 0.019984946
0003a0 80 01 38 bd 20 58 30 3b 20 ec 86 bb 26 6d 03 bd
       -0.044923306 0.0026907995 -0.0041175038 -0.032086514
0003b0 56 02 73 3d 74 31 f1 bc 00 3e 91 3b f0 20 d3 bb
       0.0593284 -0.029442526 0.00443244 -0.0064431354
0003c0 44 b3 85 3c 00 b6 2e ba d0 9d ad 3c 04 3a 1b 3d
       0.016320832 -0.00066646934 0.021193415 0.037897125
0003d0 36 42 03 bd 98 5a e1 3c 2c 9f b2 3c 5c af b4 bc
       -0.032045566 0.027509019 0.021804415 -0.022056274
0003e0 8a 4a 2a 3d c0 f3 86 3a a8 1e 5f bc d4 9c 80 bc
       0.041574992 0.0010296032 -0.013618149 -0.015699781
0003f0 bc 22 e2 bc e8 2c 37 3c 20 5f b3 bc 50 5f e5 3c
       -0.027604453 0.01118014 -0.021895945 0.02799955

l3.weight f4 [2, 256]
000000 b2 22 27 bb 18 86 f5 39 20 43 c1 ba 34 5c 34 3b
       -0.0025502858 0.0004682995 -0.0014744736 0.0027520778
000010 50 69 e7 b9 20 53 2a ba 38 36 f3 3a 80 4c d0 38
       -0.00044138217 -0.0006497372 0.0018555587 9.932462e-05
000020 2b b2 30 bb 3e fe 25 3b 58 13 4b ba 68 b4 15 3a
       -0.0026961665 0.0025328542 -0.0007746718 0.00057107816
000030 a8 67 cd 3a 8c f6 bb ba 50 ed 29 bb b0 87 cc 39
       0.0015671151 -0.0014340444 -0.0025928803 0.00039011007
000040 48 50 9a 3a 00 01 59 ba a0 d9 18 39 ea 90 2f bb
       0.0011773193 -0.0008278042 0.00014576921 -0.0026789256
000050 88 c1 d0 b9 b8 e1 95 3a 64 7e be ba 84 dc 3b ba
       -0.00039817044 0.0011435067 -0.0014533517 -0.0007166343
000060 50 a2 15 b9 a4 51 22 ba 2a 97 34 bb 84 fb 66 3a
       -0.00014270213 -0.0006191975 -0.002755592 0.00088112825
000070 8a 28 b3 ba a0 7a 9f b9 c0 9b 08 bb a2 a5 08 3b
       -0.0013668698 -0.00030418206 -0.0020844787 0.0020850678
000080 2c 2c 63 3a 48 cc 16 ba 64 7c db ba 94 99 f5 3a
       0.0008665945 -0.0005752486 -0.0016745445 0.0018737786
000090 74 01 c3 ba fa 7e 21 3b 6e c3 26 bb f9 36 35 bb
       -0.0014877752 0.0024642334 -0.0025446075 -0.0027651174
0000a0 92 e4 13 3b 5e 92 29 bb b0 1e 20 ba 90 41 2c bb
       0.0022566658 -0.0025874595 -0.00061080884 -0.0026284195
0000b0 58 6b 95 ba 38 1f 2e 3a 48 33 23 3b 82 46 12 3b
       -0.0011399789 0.0006642225 0.0024902392 0.0022319858
0000c0 34 ca 14 3b a2 e5 db ba 20 6a 2d bb a8 29 1a bb
       0.002270353 -0.001677681 -0.002646096 -0.0023523364
0000d0 e0 16 9d 3a 1e 09 44 bb 08 c6 79 3a 00 69 cc b8
       0.0011984967 -0.002991266 0.0009528105 -9.747036e-05
0000e0 94 7e bb 3a 4d 8c 2a bb 58 f1 a9 39 00 5b be 38
       0.0014304691 -0.0026023567 0.00032414007 9.076856e-05
0000f0 f8 04 89 ba 14 fd 92 3a d8 b9 25 bb b6 a7 2d 3b
       -0.0010453751 0.0011214339 -0.0025287773 0.0026497669
000100 30 e4 e7 b9 38 ad 50 ba 94 ae be 3a 86 5a ac ba
       -0.00044229766 -0.0007960382 0.0014547878 -0.0013149537
000110 b0 33 6e b9 70 6e 81 ba 70 2a 0d 3b 24 4b 35 bb
       -0.00022716704 -0.0009874832 0.0021540187 -0.0027663196
000120 70 41 ab ba 84 1c 07 ba 80 61 94 b7 d0 c9 37 3b
       -0.0013065767 -0.00051540905 -1.7688377e-05 0.0028043874
000130 f8 68 e8 39 e8 f8 d3 b9 d6 57 24 3b 4c 0b 44 3b
       0.00044328696 -0.00040430506 0.0025076768 0.002991396
000140 90 86 19 bb de bb ca ba ea bb 3d bb d5 62 25 bb
       -0.0023426153 -0.0015467366 -0.0028951117 -0.002523591
000150 33 c2 0f bb b4 8d 2e ba c0 26 9a 3a d4 8a 5a ba
       -0.002193582 -0.00066586887 0.0011760816 -0.0008336727
000160 ac f0 2d ba b4 1f 24 3a 7e d6 b6 ba 82 6e 0f 3b
       -0.0006635289 0.00062608276 -0.0013949422 0.0021885936
000170 44 90 2a 3b 3e 18 26 3b 80 42 37 39 9c 86 49 3a
       0.002602593 0.002534404 0.00017477013 0.00076876
000180 60 c5 88 39 1f 88 c5 ba 70 e7 28 39 00 69 4e b9
       0.00026086997 -0.0015070474 0.00016107946 -0.00019684806
000190 08 a3 09 3a 20 9d c2 39 d8 e9 1f 3b c8 61 7f 3a
       0.0005250429 0.0003711963 0.0024400856 0.00097420486
0001a0 3c b8 fe 3a 00 53 86 3a d8 4b 9a 3a be 54 c7 ba
       0.0019433568 0.0010248125 0.0011771871 -0.001520775
0001b0 f5 bd b8 ba 20 01 d6 38 68 da d8 b9 ce 37 86 ba
       -0.0014094698 0.00010204525 -0.00041361456 -0.001024002
0001c0 b0 5d a9 3a 18 8a a2 39 e0 66 14 3b 5a 92 3b 3b
       0.0012921598 0.00031001936 0.0022644326 0.0028621168
0001d0 40 13 7b 39 78 97 d6 3a a0 44 cc 39 cc 9c 01 3b
       0.00023944397 0.0016372046 0.00038961042 0.0019777296
0001e0 f8 aa a2 3a 48 0a fa ba d4 cc 41 3a 56 43 ef ba
       0.0012410572 -0.001907655 0.00073928875 -0.0018254321
0001f0 d8 45 1f 3b 94 00 d9 3a e8 08 c8 3a ef 83 01 bb
       0.0024303105 0.0016555958 0.0015261443 -0.0019762476
000200 84 ae fc 3a a3 87 bd ba f0 78 a6 39 d3 7a 12 bb
       0.0019278084 -0.0014459979 0.00031752093 -0.002235104
000210 0c e8 01 3b 00 fa 1f b7 8a 00 1e 3b 11 e1 cb ba
       0.0019822149 -9.535346e-06 0.0024109208 -0.0015554746
000220 28 4a 91 3a bf 29 1e bb 63 9a b8 ba 60 ed 15 3a
       0.0011084722 -0.002413377 -0.0014084097 0.00057192706
000230 c3 66 0d bb a8 da 33 3b 7e 3c 9c ba 80 b8 2a 3a
       -0.0021576143 0.0027443562 -0.0011919884 0.0006512478
000240 d8 1f e6 39 e8 ce 62 3a 39 9f 9d ba 57 61 c7 ba
       0.00043892744 0.0008652047 -0.0012025601 -0.0015211505
000250 54 bd 17 3a 7a f8 07 bb 18 00 6c ba 70 1a 06 3b
       0.0005788405 -0.0020747469 -0.00090026995 0.0020462535
000260 77 f0 8b ba 78 74 11 3b 3c 6b e3 3a 28 e3 d6 ba
       -0.0010676523 0.0022194665 0.0017350684 -0.0016394602
000270 8c 9d 1d 3a 18 e6 a3 3a 60 60 bd 38 c4 8f a7 ba
       0.0006012551 0.0012504486 9.0301735e-05 -0.0012783934
000280 b6 1d 26 3b c6 a3 b8 ba df 2d 1c bb 34 a4 67 3a
       0.00253473 -0.0014086894 -0.0023831052 0.0008836419
000290 f0 f6 58 ba e0 04 13 ba c2 12 35 3b 19 6b 30 bb
       -0.00082765426 -0.00056083314 0.0027629589 -0.0026919304
0002a0 d0 20 16 b9 6f 94 36 bb 14 b6 e8 3a 00 b8 37 38
       -0.00014317338 -0.002785947 0.0017754459 4.3801963e-05
0002b0 38 6f 6e ba 70 bf 61 b9 aa 47 43 3b fb b0 a1 ba
       -0.00090955524 -0.00021528988 0.0029797354 -0.001233607
0002c0 d0 c2 1f ba 84 09 fc 3a 2d 6f 35 bb 6b 53 ad ba
       -0.0006094398 0.001922891 -0.0027684674 -0.0013223713
0002d0 4a 21 0d 3b d0 cb 0d b9 72 cf 23 bb 68 a7 73 3a
       0.0021534734 -0.00013522734 -0.0024995473 0.000929466
0002e0 20 ee 3d 3b ea 6c 99 ba ca eb d2 ba b8 d9 c7 39
       0.0028981045 -0.0011705433 -0.0016091999 0.0003811845
0002f0 b6 3f 13 3b b2 cc 00 bb c8 05 b0 b9 b8 78 07 3a
       0.0022468395 -0.0019653258 -0.00033573643 0.000516783
000300 b4 ad cd 3a 7d 19 e1 ba 58 52 80 3a 44 71 ef 3a
       0.0015692026 -0.0017173734 0.0009790165 0.0018268009
000310 6e 2e db ba 7e 1e 43 bb 50 3b 3b 3a 97 74 44 bb
       -0.0016722211 -0.0029772813 0.0007142322 -0.002997672
000320 2c 95 98 3a cc 95 84 3a 47 63 41 bb a0 d4 a9 38
       0.0011641136 0.0010115444 -0.0029508637 8.0981525e-05
000330 b8 e0 7f 3a 8d 36 3c bb 14 f7 f4 ba 00 08 f9 3a
       0.0009760964 -0.0028719038 -0.0018689358 0.0018999577
000340 92 de 20 3b d8 eb 25 ba db d5 bc ba 00 8d 67 38
       0.0024546725 -0.0006329394 -0.0014406996 5.520601e-05
000350 71 ab f4 ba 78 4a 4c 3a 10 09 44 39 38 fe 1e 3b
       -0.0018666816 0.0007793079 0.00018695393 0.0024260413
000360 1d 04 e8 ba 4e 36 a7 ba 38 25 9c 3a 18 6b e9 3a
       -0.0017701421 -0.0012757273 0.0011912948 0.0017808406
000370 70 d1 8e 3a 18 49 43 bb 3c ad dd 3a 50 63 86 3a
       0.0010896157 -0.0029798206 0.001691259 0.0010252986
000380 16 84 24 bb c1 1f cc ba f6 f0 05 bb 7e d2 f9 ba
       -0.0025103143 -0.0015573428 -0.0020437813 -0.0019059924
000390 ac f4 19 3b 48 8c 80 b9 00 e5 b8 3a f0 28 4e 39
       0.0023491783 -0.0002451858 0.0014106333 0.00019660941
0003a0 7c 87 f7 3a 4c 10 67 3a d0 16 a5 39 02 30 3a bb
       0.0018884982 0.0008814379 0.0003148825 -0.0028409963
0003b0 fa 82 35 bb 59 57 0d bb fa ad 0c 3b d4 a6 9b ba
       -0.0027696476 -0.0021566956 0.0021466003 -0.001187528
0003c0 2e 9c c0 ba b3 2c 0c bb bc cc f5 3a 7e 52 3d 3b
       -0.0014694983 -0.0021388947 0.0018753032 0.002888828
0003d0 90 5c cf 3a 8f c5 05 bb 10 48 e8 3a 0c 8a 11 3b
       0.0015820432 -0.0020411944 0.0017721672 0.0022207526
0003e0 37 e2 2d bb 83 ea 38 bb 80 7b e7 38 88 fe fc 39
       -0.002653254 -0.0028215952 0.00011037942 0.00048254826
0003f0 00 7c e7 3a ae b5 d2 ba 9c 2d 86 3a d9 e1 fa ba
       0.0017660856 -0.0016075873 0.0010236981 -0.0019140794

l3.bias f4 [2]
000000 58 f4 98 b9 b4 81 09 3b
       -0.0002917375 0.002098185
