matd3_actor.pth (torch, 274992 bytes, 6 tensors)

l1.weight f4 [256, 6]
0	0xbdb1cf68	-0.08682138
1	0xbe4defe6	-0.20111045
2	0x3de3ec60	0.11129069
3	0x3e1b26d0	0.15151525
4	0xbe366beb	-0.17814605
5	0xbe805141	-0.25061992
6	0xbe427c10	-0.18992639
7	0xbe989796	-0.2980315
8	0xbe185044	-0.14874369
9	0x3ea97733	0.33098754
10	0x3da20528	0.0791114
11	0x3d957344	0.07297376
12	0xbe2e3a88	-0.17014515
13	0x3e7f6904	0.24942404
14	0xbdc6aa94	-0.09700504
15	0xbec12b63	-0.37728414
16	0xbe1976ce	-0.14986727
17	0xbeb96c86	-0.3621561
18	0x3e5eb7ee	0.21749851
19	0x3eba6ffb	0.3641356
20	0x3e8c89d8	0.27448916
21	0xbe7b6e94	-0.24553901
22	0x3e6a2d10	0.22868752
23	0xbe114419	-0.14186133
24	0x3e3cfe56	0.18456396
25	0x3ecdb58a	0.40177566
26	0xbe15077a	-0.14553633
27	0xbe6dc70e	-0.23220465
28	0xbd757a52	-0.059931107
29	0x3d0c101b	0.034195047
30	0xbebd3b30	-0.3695922
31	0x3d0dbcd3	0.034603905
32	0x3c76dc6a	0.015067199
33	0x3ece0aea	0.40242702
34	0xbd82db14	-0.06389442
35	0x3e405eec	0.1878621
36	0x3e76179d	0.24032445
37	0xbe3281bc	-0.17432302
38	0xbe79152a	-0.2432448
39	0x3df67ee0	0.12035918
40	0x3e494db1	0.19658543
41	0x3e8ff6ef	0.28118083
42	0x3e2774dc	0.16353172
43	0xbd9d6fc4	-0.07687333
44	0xbe72907b	-0.23687927
45	0x3e885c44	0.26632893
46	0x3e49f1a9	0.19721092
47	0x3e8d12cd	0.27553406
48	0xbe68fd5f	-0.22752903
49	0x3eb7ab67	0.35872957
50	0xbdccc5a1	-0.09998632
51	0xbe1e4908	-0.15457547
52	0x3e2c4c77	0.16826044
53	0x3dacc33d	0.08435676
54	0x3d62d5b0	0.05537957
55	0xbe94be69	-0.2905152
56	0xbe802128	-0.25025296
57	0xbebcbb4b	-0.36861643
58	0xbe76dacf	-0.24106906
59	0x3e81f95e	0.25385565
60	0xbd88ef58	-0.06686276
61	0xbe25cb24	-0.16190773
62	0xbd05b990	-0.03264767
63	0xbe55de1e	-0.20885512
64	0xbe728fb1	-0.23687626
65	0x3eb30a1c	0.3496865
66	0x3e284ad8	0.164348
67	0xbe76f16a	-0.2411553
68	0xbdc31214	-0.095249325
69	0xbdd7a1fc	-0.10528943
70	0xbebc143a	-0.36734182
71	0x3eb24c88	0.34824014
72	0x3da07d19	0.078363605
73	0xbe4fca86	-0.202921
74	0x3dcc941e	0.099891886
75	0x3e9f922d	0.3116621
76	0xbe5fd24c	-0.21857566
77	0xbd05eac7	-0.032694604
78	0xbeb7f76c	-0.35930955
79	0x3e2c7c6d	0.1684434
80	0xbdb34ed3	-0.08755269
81	0xbebc9344	-0.36831105
82	0xbe9c783c	-0.30560482
83	0x3e969718	0.2941215
84	0xbde3ccb2	-0.11123027
85	0xbe81239e	-0.25222486
86	0x3ea18138	0.315439
87	0x3ddc17e9	0.10746748
88	0x3e20fe17	0.15721928
89	0xbeb82556	-0.35965985
90	0x3d85a510	0.06525624
91	0x3ece59fa	0.40303022
92	0xbe9220bf	-0.28540608
93	0x3d530dc9	0.05152682
94	0xbe91ff88	-0.28515267
95	0xbeb10406	-0.34573382
96	0xbd163bba	-0.036678053
97	0xbe2c51cd	-0.1682808
98	0xbe4478d4	-0.19186717
99	0xbdca640a	-0.09882362
100	0x3eb10a79	0.34578303
101	0xbc8cbe64	-0.01718063
102	0xbc958b4c	-0.018254898
103	0xbe54b584	-0.20772368
104	0xbe08c6cf	-0.1335709
105	0xbea00fb9	-0.31261995
106	0x3ea34654	0.31889594
107	0xbebaa7b8	-0.36456084
108	0xbada5bb3	-0.0016659409
109	0xbeceb752	-0.40374237
110	0x3e3327ef	0.17495702
111	0xbe396469	-0.1810471
112	0x3da0a9d8	0.07844895
113	0x3d38b8d0	0.045098126
114	0x3eca8545	0.39554802
115	0x3d8bd6a1	0.068280466
116	0x3d150545	0.03638198
117	0xbe91d0a0	-0.2847948
118	0x3e097c2d	0.13426276
119	0x3e959639	0.29216173
120	0xbecff65e	-0.4061765
121	0xbdfb81b0	-0.12280595
122	0x3e43dc98	0.19127119
123	0x3dfe5c20	0.12419915
124	0xbe2d1b44	-0.16904932
125	0x3deb5158	0.114901245
126	0xbe995e0d	-0.29954568
127	0x3db00605	0.08594898
128	0x3e02d1cd	0.12775345
129	0x3dd8c97a	0.105853036
130	0xbe396d3e	-0.18108079
131	0xbea965cb	-0.33085474
132	0x3e23f131	0.16009976
133	0xbe33ae6e	-0.17547008
134	0xbd93ccc1	-0.07216788
135	0xbe877759	-0.26458243
136	0x3ecdc616	0.4019019
137	0x3ddb9b48	0.10722977
138	0xbeb0e3d5	-0.34548822
139	0xbd989dd1	-0.07451976
140	0xbc81636c	-0.015794478
141	0xbe8a04f7	-0.26956913
142	0xbe858916	-0.2608115
143	0xbe699594	-0.22810966
144	0xbe7c904e	-0.24664423
145	0xbb82ee8f	-0.0039957236
146	0xbe35d352	-0.17756394
147	0x3eb0b6d3	0.34514484
148	0x3e83694e	0.2566628
149	0x3d8c0c3c	0.06838271
150	0xbe1cf62c	-0.15328282
151	0x3c56c34d	0.013108087
152	0x3ed09b53	0.40743503
153	0x3ec0b810	0.3764043
154	0xbe679e58	-0.22618997
155	0xbd376dd4	-0.044782475
156	0x3e267290	0.1625464
157	0xbd94916a	-0.07254298
158	0x3dc1f830	0.09471166
159	0xbd4a6b0e	-0.0494185
160	0xbeb40daf	-0.3516669
161	0x3e9dd2e2	0.30824953
162	0xbdb95ac0	-0.09050512
163	0xbd1ca730	-0.03824538
164	0x3e53bbb8	0.20677078
165	0xbe44aa8f	-0.19205688
166	0xbec1f5ff	-0.37882993
167	0xbdd78070	-0.105225444
168	0x3cfc5264	0.030801006
169	0x3ed90f1f	0.4239435
170	0xbdafa5ed	-0.0857657
171	0x3da6177c	0.08109948
172	0x3c719fe6	0.014747595
173	0x3e06d961	0.13168861
174	0xbe490a3f	-0.19632815
175	0x3eb4d6f1	0.35320237
176	0xbe709fdd	-0.23498483
177	0x3dd7e18f	0.10541069
178	0x3e859e00	0.26097107
179	0x3ed8b3f4	0.42324793
180	0x3dddb3c5	0.10825304
181	0x3de198c9	0.110154696
182	0x3e85649c	0.2605332
183	0xbde2ad04	-0.11068156
184	0xbe8f3576	-0.27970475
185	0x3e6ea1f9	0.23303975
186	0x3ebcf402	0.36904913
187	0xbdcc47f0	-0.099746585
188	0x3dc1b8b0	0.094590545
189	0xbeb9baa0	-0.36275196
190	0xbd0b0890	-0.033943713
191	0xbec403e8	-0.3828423
192	0xbe30ff48	-0.17284882
193	0x3e83a135	0.2570893
194	0xbddaffca	-0.10693319
195	0x3d09e0f5	0.0336618
196	0x3d109788	0.03530076
197	0x3e2e65ef	0.17031072
198	0x3e710439	0.23536767
199	0x3e8f2553	0.27958164
200	0xba16fac1	-0.0005759411
201	0x3ed89b58	0.42306018
202	0x3e0a3504	0.13496786
203	0x3e258e97	0.16167675
204	0xbda369fb	-0.079791985
205	0x3e787a08	0.24265301
206	0x3e9e9f76	0.30981034
207	0xbe004c16	-0.12529024
208	0x3e94150f	0.28922316
209	0xbe42c000	-0.19018555
210	0xbd97eff1	-0.07418812
211	0xbc02c574	-0.007981647
212	0x3ebf9b6b	0.37423262
213	0x3bbeb379	0.0058197347
214	0xbe8dc95d	-0.2769269
215	0x3d7c7363	0.06163348
216	0xbebd9cae	-0.370336
217	0xbecabc24	-0.39596665
218	0xbec4b30d	-0.38417855
219	0x3d18dfb8	0.03732273
220	0xbe8f3689	-0.27971295
221	0xbeb99dc5	-0.3625318
222	0xbea91215	-0.33021608
223	0xbd830fc7	-0.06399494
224	0x3e943e13	0.2895361
225	0x3b9bdb38	0.0047563575
226	0x3ead9358	0.33901477
227	0xbdb433e1	-0.087989576
228	0x3eb40e20	0.35167027
229	0xbebf9fdb	-0.37426648
230	0x3ec56f87	0.3856165
231	0x3b30722a	0.0026923516
232	0x3db85a3d	0.090015866
233	0xbd214e26	-0.03938117
234	0x3e3e1d87	0.18565951
235	0xbe05be87	-0.13060962
236	0x3eae7e3f	0.34080693
237	0x3eb9ecf0	0.3631358
238	0xbbbd4bb9	-0.005776849
239	0xbd885fcd	-0.066588975
240	0xbde8af83	-0.11361601
241	0x3eccc253	0.39992008
242	0xbe112723	-0.14175086
243	0xbe579f58	-0.21056879
244	0xbb674546	-0.0035289093
245	0x3eb94730	0.36187124
246	0xbe01deae	-0.12682602
247	0xbea710d8	-0.32630038
248	0x3e145b24	0.14487892
249	0x3e3ac780	0.18240166
250	0x3e8dadd6	0.2767169
251	0xbda74804	-0.08168033
252	0xbe6e5d0c	-0.23277682
253	0x3de0c7a2	0.10975577
254	0xbe45065c	-0.19240707
255	0x3e41241c	0.18861431

l1.bias f4 [256]
0	0xbe07f696	-0.13277659
1	0x3e8ed58b	0.27897295
2	0xbec35e98	-0.38158107
3	0x3e9ccab5	0.30623403
4	0x3d72e996	0.059304796
5	0x3ecde0f0	0.40210676
6	0x3d14db92	0.03634221
7	0xbe1c73d3	-0.15278558
8	0x3e0a0f3a	0.13482371
9	0xbeb72b8f	-0.3577542
10	0xbe2e029d	-0.16993184
11	0xbec2d722	-0.38054758
12	0xbe3e1ea2	-0.18566373
13	0x3e956f58	0.2918651
14	0x3df34d93	0.118800305
15	0x3e0c0810	0.1367495
16	0x3ec427eb	0.38311705
17	0x3eeb4d12	0.45957237
18	0xbe045ada	-0.12925282
19	0xbe67118a	-0.22565284
20	0xbe825e66	-0.25462645
21	0xbd7ee02d	-0.06222551
22	0xbe955eb0	-0.29173803
23	0x3ea0c50a	0.3140033
24	0xbe9877cc	-0.29778898
25	0xbc4514a7	-0.01202885
26	0x3e967cc8	0.29392076
27	0xbdd60938	-0.10450977
28	0xbd7d4fd2	-0.0618437
29	0x3eaf0804	0.34185803
30	0x3ca0f55d	0.019648248
31	0xbecb8d31	-0.39756158
32	0x3ed0d416	0.4078681
33	0x3eb4dd8e	0.35325283
34	0x3dfffe8e	0.12499724
35	0xbcdda434	-0.027055837
36	0xbd8820d0	-0.066468835
37	0x3e44d339	0.192212
38	0x3d6cc92a	0.057809032
39	0xbde89112	-0.11355795
40	0xbe49e84f	-0.19717525
41	0xbecb2e91	-0.39683965
42	0xbbaac64e	-0.005211628
43	0xbd66080d	-0.05616002
44	0xbe91d97a	-0.28486234
45	0x3eb763ba	0.35818273
46	0xbe1ee532	-0.15517119
47	0xbe490f11	-0.19634654
48	0x3d74a951	0.059731785
49	0x3e3c9a62	0.18418267
50	0xbe25b4b0	-0.16182208
51	0x3ea77270	0.32704496
52	0x3e76a01a	0.24084511
53	0xbd1a9ea0	-0.037748933
54	0x3e1ab2e1	0.151073
55	0xbe437cc9	-0.1909057
56	0xbec387eb	-0.38189635
57	0x3e832716	0.25615758
58	0x3e7e6ba8	0.24845755
59	0x3e7a645f	0.24452351
60	0xbe94f1d8	-0.29090762
61	0x3df64989	0.120257445
62	0xbe843904	-0.2582475
63	0x3e319055	0.17340215
64	0x3e639c77	0.22227655
65	0x3ea0da13	0.31416377
66	0xbe912afb	-0.28353104
67	0x3d2b27b8	0.041785926
68	0x3d237f80	0.039916515
69	0xbe98f414	-0.29873717
70	0x3e93a69d	0.28838053
71	0x3e85e3f6	0.26150483
72	0xbe02b77e	-0.12765309
73	0xbd665fbd	-0.056243647
74	0xbe795c7c	-0.24351686
75	0x3dea6507	0.11445051
76	0xbe30691b	-0.17227595
77	0xbceb48c5	-0.028721223
78	0x3d6de403	0.058078777
79	0xbd377330	-0.044787586
80	0x3e5b323e	0.21405885
81	0xbeb14d09	-0.34629086
82	0xbe6b1494	-0.22957069
83	0xbd0bff82	-0.034179218
84	0x3e9c8a75	0.30574384
85	0x3e8dc738	0.27691054
86	0x3e96f2e1	0.29482177
87	0xbea2608b	-0.3171428
88	0x3ed4e7d8	0.41583133
89	0xbdab5668	-0.0836609
90	0xbdf34712	-0.1187879
91	0x3edb9158	0.42884326
92	0xbeb5e562	-0.35526568
93	0xbd91a9e5	-0.07112483
94	0x3d29cc2f	0.04145449
95	0xbd95e62c	-0.073192924
96	0x3df63d3f	0.120234005
97	0x3e7bcadd	0.24589105
98	0xbe0c6daf	-0.13713716
99	0x3e4fbb24	0.20286232
100	0xbe8764dd	-0.2644414
101	0xbdb36742	-0.08759929
102	0x3e5c9b21	0.21543552
103	0xbea9aacd	-0.33138123
104	0xbc928921	-0.017887654
105	0x3cc24a41	0.023717048
106	0x3d7332c2	0.05937458
107	0x3e39643f	0.18104647
108	0xbdb586f4	-0.08863631
109	0xbd6522be	-0.055941336
110	0x3e760a0e	0.24027273
111	0xbe758a97	-0.23978649
112	0xbe8e83ed	-0.27835026
113	0xbea9c1a0	-0.33155537
114	0xbe96b26b	-0.29432997
115	0xbe40950f	-0.18806861
116	0x3eb0d993	0.34540996
117	0xbd8dd4ba	-0.0692534
118	0x3dfa6c8a	0.122277334
119	0x3e5473a0	0.20747232
120	0xbe4bbdd1	-0.19896628
121	0xbe3a69b3	-0.18204384
122	0x3ed3bd65	0.41355434
123	0x3e143f96	0.14477381
124	0x3e19e0d3	0.1502717
125	0xbe623954	-0.22092181
126	0x3e259f1a	0.16173974
127	0x3e80f371	0.2518573
128	0xbe35f70e	-0.17770025
129	0x3e004a26	0.12528285
130	0xbe73bc92	-0.23802403
131	0x3db9d02c	0.09072909
132	0xbeb42d47	-0.35190794
133	0x3ea25d86	0.31711978
134	0x3d84ff1a	0.06493969
135	0x3c7c6fb6	0.015407493
136	0x3e3c408e	0.18384
137	0xbda595e7	-0.08085232
138	0xbe9816f4	-0.29705012
139	0xbe59da07	-0.21274577
140	0x3ea5512c	0.32288492
141	0xbd74f928	-0.059807926
142	0x3e991f4f	0.299067
143	0xbc5dcfa7	-0.013538278
144	0x3d5ad791	0.053428236
145	0x3eda7f9a	0.42675477
146	0x3ec55bef	0.38546702
147	0xbe0437db	-0.12911932
148	0xbdb889fb	-0.09010693
149	0x3e29de7a	0.16588774
150	0xbdc2acdc	-0.095056266
151	0x3e98c03f	0.29834172
152	0x3c8cc14a	0.017182011
153	0x3ed99c36	0.42501992
154	0x3eb233b5	0.34805074
155	0xbe75a4ad	-0.239886
156	0x3e609191	0.21930529
157	0x3eb9123d	0.36146727
158	0x3e28d6c6	0.1648818
159	0x3d3c6119	0.045991037
160	0x3ea2ebf2	0.31820637
161	0x3eb6bd8d	0.3569149
162	0x3e9b2b1f	0.30306336
163	0xbe4076ab	-0.18795268
164	0x3e3c9ca4	0.18419129
165	0xbd8763dd	-0.06610844
166	0xbe309fa1	-0.17248394
167	0x3de50a7f	0.111836426
168	0x3eac8eb2	0.33702618
169	0xbdb21031	-0.086944945
170	0xbec1207a	-0.3772009
171	0xbd0db7f0	-0.034599245
172	0x3db16af8	0.08662981
173	0xbe091c43	-0.13389687
174	0xbd402f64	-0.046920195
175	0x3ed03e43	0.40672502
176	0xbe8b0e8d	-0.2715954
177	0xbe825cf7	-0.25461552
178	0x3e5efad7	0.21775375
179	0x3ec0d5ff	0.37663266
180	0xbe58fcc9	-0.2119018
181	0x3e51a9aa	0.20474878
182	0xbe826b0d	-0.25472298
183	0xbe9bc2ef	-0.3042216
184	0x3e886f31	0.26647332
185	0x3e9ff4b8	0.31241393
186	0x3ed68887	0.41901037
187	0xbe9daad4	-0.30794394
188	0x3dc0c3ce	0.09412347
189	0x3e9c0c6a	0.3047822
190	0x3e5c5877	0.21518122
191	0xbed00d29	-0.4063504
192	0xbc958346	-0.018251073
193	0x3c9d5edf	0.019210277
194	0x3c95fa49	0.018307822
195	0x3e0cae4c	0.13738364
196	0xbe50ff75	-0.20409949
197	0xbea2e6e4	-0.3181678
198	0xbd6d8c68	-0.05799523
199	0xbe797654	-0.24361545
200	0xbbceb30e	-0.006307966
201	0x3ecadecc	0.39623106
202	0x3ed9b9b3	0.4252449
203	0xbd9518e8	-0.07280141
204	0x3e49347e	0.1964893
205	0xbebfadae	-0.37437195
206	0x3ec60483	0.38675317
207	0xbe529eeb	-0.20568435
208	0xbda00e70	-0.07815254
209	0xbe628c2a	-0.22123781
210	0x3d020b64	0.031749144
211	0xbe7b37b3	-0.24532966
212	0x3e8dc965	0.27692714
213	0xbc592838	-0.013254218
214	0x3e0a0d8b	0.13481729
215	0xbe00bd5f	-0.1257224
216	0x3ec963cb	0.39333948
217	0x3d5200af	0.051270183
218	0x3ec6571a	0.38738328
219	0xbe3688e1	-0.17825653
220	0x3ebd1e73	0.36937293
221	0xbdcbd2d3	-0.09952321
222	0xbde99224	-0.11404827
223	0x3e463836	0.1935738
224	0xbe973a4c	-0.29536664
225	0x3e34fce6	0.17674598
226	0x3eb1e105	0.3474199
227	0xbdb475a6	-0.08811502
228	0xbe4b9894	-0.19882423
229	0xbd5bdd2e	-0.05367773
230	0x3e4d51c7	0.20050727
231	0x3ec9d9f9	0.39424112
232	0x3ea97e02	0.3310395
233	0xbe255f6a	-0.16149679
234	0x3e8ab0e5	0.27088085
235	0x3e4887cd	0.19583054
236	0xbd337255	-0.043810207
237	0xbe9528ca	-0.29132682
238	0x3ec65405	0.38735977
239	0xbe0633a0	-0.13105631
240	0x3e326819	0.17422523
241	0xbe5fdfaf	-0.21862672
242	0xbe72e6f5	-0.23720916
243	0xbe4b035d	-0.19825502
244	0xbe34439c	-0.17603916
245	0xbeac9516	-0.33707494
246	0x3ecb5faf	0.39721438
247	0xbe6fe911	-0.23428752
248	0xbe82c809	-0.2554324
249	0x3c5dba01	0.013533116
250	0xbd73598f	-0.05941158
251	0xbd9bdd18	-0.0761053
252	0x3e21f5b0	0.15816379
253	0x3cd6fd07	0.0262437
254	0x3e391a15	0.18076356
255	0x3d154afb	0.03644846

l2.weight f4 [256, 256]
0	0xbcc91580	-0.024546385
1	0x3d9eff12	0.077634946
2	0x3d6407ce	0.055671506
3	0x3cd391da	0.025826383
4	0x3d178684	0.03699352
5	0xbcc157ed	-0.023601497
6	0x3d86af0a	0.06576355
7	0xbb984cdb	-0.0046478338
8	0x3d95674a	0.072950915
9	0x3cd66af8	0.026174054
10	0x3d23f390	0.0400272
11	0xbd684f96	-0.056716524
12	0xbb2cc7e2	-0.0026364257
13	0xbd1667de	-0.03672015
14	0x3cb8fe13	0.02258209
15	0x3d495690	0.049154818
16	0x3da1935b	0.07889434
17	0x3d6f24b2	0.058384605
18	0x3c1c1600	0.00952673
19	0x3dcecda0	0.100978136
20	0xbd0c1b16	-0.03420552
21	0x3beb116a	0.007173707
22	0xbbb945e3	-0.005654083
23	0xbd46334d	-0.048388768
24	0x3d2aac32	0.041668124
25	0x3d98166d	0.074261524
26	0x3d33a949	0.043862615
27	0x3cde4c4c	0.02713599
28	0x3c6be650	0.0143981725
29	0xbc4daeaa	-0.01255385
30	0xbc6213ef	-0.013798698
31	0x3d46424c	0.04840307
32	0x3cb6547b	0.02225708
33	0x3d1ec89f	0.038765546
34	0x3d8c5265	0.06851653
35	0x3b9ffb8c	0.0048822816
36	0x3c1db5f0	0.009625897
37	0xbc4d213c	-0.012520131
38	0x3d66e581	0.056371216
39	0x3d9345c5	0.07191042
40	0xbc961152	-0.018318806
41	0xbd456fa2	-0.048202164
42	0x3cd285e4	0.02569861
43	0x3c717d36	0.014739325
44	0xbc11ffa7	-0.00891105
45	0x3d8704a6	0.065926835
46	0xbc904c0e	-0.01761439
47	0xbc0d26bf	-0.008615195
48	0xbc289ba4	-0.010291014
49	0x3d8862e0	0.06659484
50	0x3d311e6d	0.043241907
51	0x3ac4dfea	0.0015020345
52	0x3cf907c4	0.03039921
53	0x3c1b2aa7	0.009470618
54	0xbb0f46c3	-0.0021862246
55	0xbd0c94d4	-0.03432162
56	0xbd239f2a	-0.039946713
57	0xbd18e166	-0.03732433
58	0x3d82957d	0.06376169
59	0x3da1e4ed	0.07904992
60	0x3d85ca2e	0.06532703
61	0x3bd14f06	0.006387594
62	0xbd6f0ce4	-0.058361903
63	0xbc2a68f5	-0.010401
64	0x3d02aed2	0.031905003
65	0x3d5b809d	0.053589452
66	0x3c879073	0.016548371
67	0xbd13e94a	-0.036111154
68	0xbccdc71c	-0.025119357
69	0x3da511d1	0.08060039
70	0x3dbf6c2d	0.09346805
71	0x3c80012f	0.015625564
72	0xbd1301da	-0.035890438
73	0xbc288d5e	-0.010287611
74	0x3d3b31ba	0.04570172
75	0xbc5c9ab6	-0.01346462
76	0xbc8c1a8c	-0.017102502
77	0x3cda6e0a	0.026663799
78	0x3d0bbfc5	0.034118433
79	0xbc949e9a	-0.018142033
80	0x3c9183fe	0.017763134
81	0x3d11650c	0.035496756
82	0xbc27e0af	-0.01024644
83	0x3db2e218	0.0873453
84	0xbcc3372a	-0.023830015
85	0xbcc32958	-0.023823425
86	0x3d04921e	0.03236591
87	0xbbc9a8c0	-0.00615415
88	0x3d10b883	0.035332214
89	0xbd7ef2ae	-0.062243156
90	0x3d3dde6d	0.0463547
91	0x3cdd2660	0.026995838
92	0xbc9f40a8	-0.01944001
93	0x3d3cb31a	0.046069242
94	0xbd08c180	-0.03338766
95	0x3c0d54f8	0.008626215
96	0xbd0f99bd	-0.035058726
97	0xbc2dd56c	-0.010609966
98	0x3d114e7f	0.03547525
99	0x3da04715	0.07826058
100	0x3d7b0f70	0.06129402
101	0x3d78fbec	0.060787126
102	0x3da19e7a	0.07891555
103	0x3d158182	0.03650046
104	0x3d82defa	0.06390186
105	0x3d337a08	0.04381755
106	0x3d3fd247	0.046831395
107	0x3d571363	0.052508723
108	0xbbbb19d0	-0.005709864
109	0xbd3afc47	-0.045650747
110	0x3c8f9ea1	0.017531695
111	0xbc94516b	-0.01810523
112	0xbd4c92be	-0.04994463
113	0x3d14047f	0.0361371
114	0x3d9a576c	0.07536206
115	0x3c0b07a7	0.008485711
116	0x3db2c896	0.08729665
117	0x3d57f9d6	0.052728496
118	0xbd167381	-0.036731247
119	0xbc4b489a	-0.012407446
120	0x3d507f9c	0.050902948
121	0xbbaee24b	-0.005337035
122	0xbd131867	-0.035911944
123	0x3ce62a5a	0.028096367
124	0x3c2ebe14	0.010665435
125	0xbc80fcc0	-0.01574552
126	0xbd0edbdc	-0.034877643
127	0xbc090747	-0.008363551
128	0xbc430676	-0.011903396
129	0xbd197084	-0.03746082
130	0x3d187e01	0.03722954
131	0xbc296025	-0.010337864
132	0x3a21a42c	0.0006166126
133	0x3bd112a2	0.006380395
134	0xbb85bee6	-0.0040815948
135	0x3ba630cc	0.005071735
136	0x3acdb9d7	0.0015695643
137	0xbafcb4f0	-0.0019279998
138	0xbcb6fcfc	-0.02233743
139	0x3cb980a5	0.02264435
140	0x3d69dc41	0.057094816
141	0xbc42c4b8	-0.011887722
142	0x3dc74df9	0.09731669
143	0x3c5c0653	0.013429242
144	0x3d90d91a	0.07072659
145	0x3d8d3f67	0.06896859
146	0x3c03af4a	0.008037398
147	0x3d5d4458	0.054020256
148	0x3cab577a	0.020915736
149	0xbca9eb89	-0.020742195
150	0x3d7bbb1a	0.06145773
151	0x3c956013	0.018234288
152	0x3c477b85	0.012175445
153	0x3c5a447a	0.01332199
154	0x3d85b0a4	0.06527832
155	0xbd4ee194	-0.050508097
156	0x3d84ff75	0.06494037
157	0xbbcb2602	-0.0061995992
158	0x3d8970b6	0.06710951
159	0x3d3a7c0f	0.045528468
160	0x3d1bedc7	0.03806856
161	0xbd065671	-0.03279728
162	0xbb387c06	-0.0028150096
163	0x3ce93788	0.028468862
164	0xbcae6663	-0.021289056
165	0x3d564202	0.052309044
166	0xbc9360f8	-0.017990574
167	0x3ca5bb8a	0.020231027
168	0x3d7083d9	0.05871949
169	0xbd2c601a	-0.042083837
170	0xbd509188	-0.05092004
171	0x3d7e66bc	0.062109694
172	0x3d98f8ef	0.07469355
173	0x3cee7e88	0.02911307
174	0x3d978e70	0.07400215
175	0x3d592d09	0.053021464
176	0x3db4d88d	0.08830366
177	0x3d9d940b	0.076942526
178	0xbca57f5d	-0.020202333
179	0x3d4c888a	0.0499349
180	0x3b9929db	0.004674179
181	0x3d2c8a32	0.04212398
182	0x3c602648	0.013681002
183	0xbd62fa7f	-0.055414673
184	0x3d9f72f5	0.07785598
185	0x3d83f507	0.0644322
186	0x3b3b2c09	0.0028560183
187	0xbc7c2878	-0.015390508
188	0x3c2f3d75	0.010695805
189	0x3bd2a637	0.0064285058
190	0xba9878e3	-0.0011632707
191	0x3cc8cce8	0.02451177
192	0x3d8d0eb2	0.068875685
193	0x3cd32199	0.025772857
194	0x3d64f851	0.055900875
195	0x3d5de5d7	0.05417427
196	0x3d90befb	0.07067677
197	0x3bf5b160	0.0074979514
198	0xbc396578	-0.011315696
199	0x3d3b6a2d	0.045755554
200	0xbc2ba019	-0.010475182
201	0x3d4d5a4e	0.05013495
202	0xbca43b1e	-0.02004772
203	0x3d90b528	0.07065803
204	0xbd209e8e	-0.03921371
205	0xbba1e864	-0.004941033
206	0xbd1135bb	-0.035451632
207	0x3d9bfef1	0.076169856
208	0x3c712b3b	0.01471978
209	0xbcc43f5c	-0.023955993
210	0xbafd3036	-0.0019316736
211	0x3d259676	0.040426694
212	0xbd000537	-0.031254973
213	0xbad51076	-0.0016255516
214	0xbbf102e8	-0.007355083
215	0x3c03e486	0.00805009
216	0xbcdc8b05	-0.026921758
217	0x3cf0418d	0.029328132
218	0xbcbb7bfc	-0.022886269
219	0x3c7d8815	0.015474339
220	0x3cb6fb01	0.022336485
221	0x3d272859	0.040809963
222	0x3bdcd384	0.006739082
223	0x3d67916c	0.05653517
224	0xbb67bc3a	-0.0035359995
225	0x3db4648d	0.08808241
226	0x3d189706	0.037253402
227	0x3d993660	0.07481074
228	0x3d591bc0	0.05300498
229	0xbc47d4c7	-0.012196726
230	0xbadd141b	-0.0016866954
231	0x3d2db133	0.04240532
232	0x3cabb12a	0.020958502
233	0xbd0522ff	-0.032504078
234	0x3d3f46bf	0.046698328
235	0xbc8c7658	-0.017146274
236	0x3d48ead3	0.04905207
237	0xbd654cae	-0.05598133
238	0x3d54a70f	0.051917132
239	0x38fcb400	0.00012049824
240	0xbc7c002b	-0.015380899
241	0x3c37d570	0.011220321
242	0x3cd8f471	0.026483746
243	0x3d11e9c9	0.035623346
244	0xbd3ddc78	-0.046352834
245	0xbd23ef74	-0.040023282
246	0xbc4a4d2f	-0.012347504
247	0x3cfea2f5	0.031083563
248	0xbcec47b7	-0.02884279
249	0xbd464498	-0.04840526
250	0x3ac3b31b	0.0014930697
251	0x3bb6d37b	0.0055794097
252	0xbd09ec3f	-0.033672567
253	0x3d8ab0df	0.06772017
254	0x3daea412	0.08527388
255	0x3ae886a9	0.0017740327

l2.bias f4 [256]
0	0x3d97d176	0.074129984
1	0x3cea658c	0.028612874
2	0x3c3b8ab7	0.011446646
3	0xbbca5f5f	-0.00617592
4	0x3d567e0f	0.052366313
5	0x3d15f294	0.036608294
6	0x3d898f29	0.06716759
7	0x392c5689	0.00016435435
8	0x3e00fd9b	0.12596743
9	0xbd2df5e9	-0.042470846
10	0xbc5d8582	-0.0135206
11	0x3c445080	0.011982083
12	0xbccde023	-0.02513129
13	0xbc875963	-0.016522115
14	0x3d576201	0.0525837
15	0xbd69b44c	-0.05705671
16	0xbd7f7174	-0.062364057
17	0xbbd98758	-0.0066384487
18	0xbcf837f9	-0.030300127
19	0xbc4fd9b5	-0.012686183
20	0xbc351e70	-0.01105462
21	0xbc776670	-0.015100107
22	0x3d067486	0.03282597
23	0xbd1ced50	-0.038312256
24	0x3ca6ac51	0.020345839
25	0xbc54d75a	-0.012990797
26	0x3c6f2a11	0.014597432
27	0x3bb81828	0.005618114
28	0xbbb5d070	-0.0055485293
29	0xbcfb2090	-0.030655175
30	0xbc64f674	-0.013974775
31	0x3c8c3035	0.01711283
32	0x3d7c4af6	0.061594926
33	0x3d118ac8	0.035532743
34	0x3d1ee9c9	0.038797174
35	0x3d711d4a	0.058865823
36	0x3c38b7ab	0.011274259
37	0x3ca91475	0.020639637
38	0x3ae6a9ab	0.0017598172
39	0xbc037894	-0.0080243535
40	0x3cac74dc	0.021051817
41	0xbd35bcc4	-0.044369474
42	0x3d9b22f9	0.0757503
43	0xbc91df65	-0.017806718
44	0x3d9e3407	0.07724767
45	0x3d9efacb	0.07762679
46	0x3bb15835	0.0054121264
47	0x3d3365e1	0.04379833
48	0x3d3a62c7	0.045504358
49	0x3c0ab2a1	0.00846544
50	0xbd0355bc	-0.032064185
51	0x3c4f1539	0.012639337
52	0xbc8e4d48	-0.017370835
53	0x3cc656cd	0.024211312
54	0x3c4243c5	0.011856978
55	0xbc21d636	-0.009877732
56	0x3dacac27	0.08431273
57	0x3d365d73	0.044522714
58	0xbd369cca	-0.04458312
59	0x3cc1811f	0.02362114
60	0xbd01b8a5	-0.03167023
61	0xbb14a9f6	-0.0022684312
62	0xbcc84d82	-0.024451021
63	0x3d9b4dbd	0.07583187
64	0xbcc2b5b8	-0.02376829
65	0x3d5e4915	0.054268915
66	0xbd169526	-0.036763333
67	0x3d2a91a8	0.041642815
68	0xbc1f0270	-0.009705171
69	0x3c00d848	0.0078640655
70	0xbc8180ac	-0.015808426
71	0x3de92e51	0.11385787
72	0x3da65e9a	0.081235126
73	0x3d8e0c51	0.06935943
74	0xbc873dde	-0.016508993
75	0x3c23dcb0	0.0100013465
76	0x3c7b9200	0.015354633
77	0xbcc7fd63	-0.024412816
78	0x3ce31d4f	0.027723936
79	0x3c2e4c2b	0.010638277
80	0x3c492232	0.012276219
81	0xbd01aa9e	-0.031656854
82	0x3d3a7148	0.04551819
83	0xbd6fcc44	-0.058544412
84	0x3ccc2502	0.02491999
85	0x3d83b330	0.06430662
86	0x3d63da34	0.055628017
87	0xbc802e90	-0.015647203
88	0x3d7d2658	0.061804146
89	0x3d6ef741	0.05834127
90	0x3ca586b0	0.020205826
91	0x3a475c7a	0.00076050276
92	0xbd249e12	-0.04018981
93	0x3bef10e1	0.0072957133
94	0xbc99bdd3	-0.018767273
95	0x3ccf7cd9	0.025328087
96	0x3d745c1f	0.059658166
97	0xbb0b3c95	-0.0021245827
98	0xbc69d230	-0.014271304
99	0x3d459ddf	0.04824626
100	0x3d430a4a	0.047617234
101	0x3d38ce3e	0.045118563
102	0x3d446b86	0.047954105
103	0x3c7fe3b0	0.01561825
104	0x3d8289af	0.06373917
105	0x3c3884a7	0.0112620955
106	0x3cebe114	0.028793849
107	0xbd66bb41	-0.056330923
108	0x3d03a4c5	0.03213956
109	0x3d8d9199	0.06912536
110	0x3d8f8e52	0.07009567
111	0xbc8c71b4	-0.017144062
112	0xbca76dc5	-0.020438084
113	0x3d3a013a	0.045411326
114	0xbd7c254a	-0.061559
115	0x3c59b8a1	0.013288648
116	0x3bcdb152	0.0062772417
117	0x3d7a79dc	0.06115137
118	0xbd1ada4f	-0.03780585
119	0x3dcf5452	0.10123505
120	0x3bc2c124	0.0059434343
121	0xbd3ca60b	-0.04605679
122	0x3da33c56	0.079704925
123	0xbd1200c0	-0.035645247
124	0xbd069f8c	-0.032867
125	0xbd0accf7	-0.033886876
126	0xbd59e5ed	-0.05319779
127	0x3ca05b03	0.019574648
128	0x3e418ebb	0.18902104
129	0xbc62813a	-0.013824755
130	0x3c8cb9c8	0.017178431
131	0x3d7220a6	0.059113167
132	0x3d9546fa	0.07288928
133	0xbc8ad4e0	-0.01694721
134	0x3d11cf06	0.035597824
135	0x3d4bc3c9	0.049747262
136	0x3d812625	0.063061036
137	0xbcbd2fe5	-0.023094127
138	0x3c18bbaa	0.009322086
139	0xbcc56af0	-0.024098843
140	0x3da5faa1	0.08104444
141	0xbc372a35	-0.0111794965
142	0x3d17e864	0.03708686
143	0x3da3fcda	0.08007212
144	0xbd446122	-0.047944196
145	0x3cd2d1d2	0.025734816
146	0x3d853fc4	0.06506303
147	0x3c906334	0.017625429
148	0x3cb415e8	0.021983102
149	0xbcaacf0f	-0.020850686
150	0x3b615d29	0.0034387803
151	0x3c6dae0a	0.014506826
152	0xbd32a2d3	-0.043612313
153	0xbd1040f0	-0.03521818
154	0xbd2847a6	-0.041083954
155	0xbd46ac0c	-0.04850392
156	0xbc9dce95	-0.019263545
157	0x3d9805e1	0.07422996
158	0xbc99957a	-0.018748034
159	0xbbd17d5e	-0.0063931188
160	0xbcd115a4	-0.025523014
161	0x3d9df030	0.07711828
162	0xbb851d25	-0.004062312
163	0x3cd1d298	0.025613114
164	0x3e214bba	0.15751544
165	0xbd41ce38	-0.047315806
166	0xbc9f52fd	-0.019448752
167	0x3c0f4f49	0.00874693
168	0x3d25abf2	0.040447183
169	0xb89e5b67	-7.551052e-05
170	0xbd35ad51	-0.04435474
171	0x3d8df6bb	0.06931826
172	0x3b849962	0.004046605
173	0xbd7fbb96	-0.062434755
174	0xbd1ab195	-0.03776701
175	0x3c9745af	0.018465845
176	0x3c36b1d8	0.0111508
177	0xbca7f2e5	-0.020501563
178	0x3d20f58a	0.039296664
179	0x3d929386	0.07157044
180	0xbba6f11c	-0.0050946604
181	0x3d9859a9	0.07438976
182	0x3e03ca8e	0.12870237
183	0xbd0f8090	-0.035034716
184	0x3cd60e99	0.026130008
185	0xbc906fc5	-0.01763142
186	0xbba09720	-0.004900828
187	0x3d976814	0.07392898
188	0xbd2928f4	-0.04129882
189	0x3cdf6720	0.027270854
190	0xbd26ebe2	-0.0407523
191	0x3d1c8be1	0.038219336
192	0xbd02160e	-0.031759314
193	0xbb8af333	-0.0042404174
194	0x3ccba64d	0.024859572
195	0x3c947a10	0.01812461
196	0xbd2dbf62	-0.042418845
197	0xbd57dd9e	-0.052701585
198	0x3cbf28e5	0.02333493
199	0xbd7c591e	-0.061608426
200	0x3ddc0b29	0.10744316
201	0x3d931ebe	0.07183598
202	0xbd422cdf	-0.047406074
203	0x3d3aeae8	0.04563418
204	0xbd1f2ad0	-0.03885919
205	0x3cf66624	0.030078001
206	0xbc1d858c	-0.00961436
207	0x3d8397bf	0.06425428
208	0x3d2850ee	0.041092806
209	0x3c0d37a8	0.0086192265
210	0xbd2d48c6	-0.04230573
211	0x3d98c8cf	0.07460176
212	0xbd140340	-0.036135912
213	0xbcef0e45	-0.029181609
214	0xbbe65fe5	-0.0070304745
215	0x3d85cb7f	0.065329544
216	0xbbbcdd19	-0.0057636616
217	0x3d9ca781	0.07649136
218	0xbd758188	-0.059937984
219	0x3cb7106f	0.022346703
220	0x3c303cab	0.010756652
221	0xbc1cf1eb	-0.009579162
222	0x3c191878	0.009344213
223	0xbce0af79	-0.027427422
224	0xbbddd2d2	-0.0067695165
225	0xbd276c01	-0.040874485
226	0x3c534c41	0.012896598
227	0x3d355f24	0.044280186
228	0x3d75feb8	0.06005737
229	0xbd27ceb3	-0.040968608
230	0xbd1ebf74	-0.038756803
231	0x3c0a2851	0.008432464
232	0xbd031072	-0.031998105
233	0xbd0c7d7a	-0.03429935
234	0x3d066a0e	0.032815985
235	0x3c5ca093	0.013466018
236	0x3db885e6	0.09009914
237	0x3d196fac	0.037460014
238	0x3d5d9a54	0.054102257
239	0x3e272bd3	0.16325311
240	0x3d2750e8	0.040848643
241	0x3d94b4fd	0.07261083
242	0x3d98ac0d	0.07454691
243	0x3cd66cca	0.026174922
244	0x3d7f1270	0.062273443
245	0xbcb3b7e5	-0.021938274
246	0xbd0e145c	-0.034687385
247	0xbc97667f	-0.018481491
248	0x3c8b4ec7	0.017005337
249	0xbc8f2a7c	-0.017476313
250	0x3d631a3b	0.055444937
251	0x3cfe95cd	0.03107729
252	0x3d90cf2e	0.070707664
253	0xbd0238de	-0.031792514
254	0x3d447c67	0.0479702
255	0xbcaff870	-0.021480769

l3.weight f4 [2, 256]
0	0x3c9ce25c	0.019150905
1	0x3a9efd24	0.0012129885
2	0x3ca07641	0.019587638
3	0xbbbc5e34	-0.0057485346
4	0x3d18b162	0.03727854
5	0x3c9bae5e	0.019004043
6	0x3c9fde20	0.019515097
7	0x3ca2606f	0.019821374
8	0x3e3680c1	0.17822553
9	0x3caa7cdc	0.02081149
10	0x3d18df61	0.037322406
11	0xba7e9a50	-0.00097123254
12	0x3915404b	0.00014233698
13	0xbb508ca7	-0.0031822117
14	0x3cb74448	0.022371426
15	0xb8b668c0	-8.6979475e-05
16	0xbb3adc58	-0.0028512683
17	0xbc9e4cce	-0.019323733
18	0x3b876b5d	0.0041326717
19	0x3a51bf76	0.0008001247
20	0x3cb36bba	0.021901954
21	0x3aa5e568	0.0012656869
22	0x3caaf66a	0.020869453
23	0x3b013faa	0.0019721785
24	0x3c98398d	0.01858213
25	0x3b0b0a88	0.0021215994
26	0x3a2633b8	0.0006340104
27	0x3d539231	0.05165309
28	0x3a94b910	0.0011346657
29	0x3b19cdfa	0.002346872
30	0x3c952340	0.018205285
31	0x3cc67d61	0.024229707
32	0x3cc1bfe5	0.023651073
33	0x3d41dcba	0.047329642
34	0x3c99b67b	0.018763771
35	0x3db76f7f	0.08956813
36	0x3c9c254d	0.019060755
37	0x3ca939ab	0.020657381
38	0x3d398572	0.04529328
39	0xbb6c0cdd	-0.003601841
40	0x3b1320da	0.002245
41	0xba1ce98c	-0.0005985729
42	0x3cb639fb	0.022244444
43	0x3c910914	0.017704524
44	0x3ccabf48	0.024749413
45	0x3d64ec81	0.05588961
46	0x3ac134e6	0.0014740496
47	0x3d3eed77	0.046613183
48	0x3c9b878e	0.018985536
49	0x3cad7f81	0.021178963
50	0x3b01ff18	0.0019835886
51	0xba2fdb21	-0.0006708373
52	0xbac7515b	-0.0015206741
53	0x3c977ae1	0.01849121
54	0x3cb55e38	0.022139654
55	0x3d04f5c0	0.032460928
56	0x3d10297b	0.03519581
57	0xb8f56f91	-0.00011703291
58	0xbb3afafb	-0.0028530944
59	0x3c98bb19	0.018643903
60	0xb9d8ba42	-0.00041337503
61	0x3c9caba3	0.019124812
62	0x3cb9d8eb	0.022686442
63	0x3c92b3e3	0.017908042
64	0xbae795d8	-0.0017668558
65	0x3cc959da	0.024578977
66	0x3aeb3de4	0.0017947522
67	0x3b423a6e	0.0029636878
68	0x3b07473c	0.0020641824
69	0x3cb73d5d	0.022368127
70	0x3b1c8b6e	0.0023886818
71	0x3e1f72bb	0.1557111
72	0x3cbedf21	0.023299756
73	0x3cb8c39b	0.02255421
74	0x3cc0be33	0.023528194
75	0xb65c8400	-3.2859389e-06
76	0x3cb85751	0.022502573
77	0x3cb1b6b7	0.02169357
78	0x3cc3a153	0.023880636
79	0x3c9c4e55	0.01908032
80	0x3caae4f5	0.020861128
81	0x3d0c759d	0.034291852
82	0x3e1860d2	0.14880684
83	0xba9b5a20	-0.0011852421
84	0x3cc32317	0.023820443
85	0x3cbc1055	0.022957006
86	0x3cb687c0	0.022281528
87	0x3cbfecfc	0.023428433
88	0x3ca39032	0.019966219
89	0x3c953e04	0.018218048
90	0x3cb8315b	0.022484472
91	0x3c98630f	0.018601922
92	0x3c7f362b	0.0155768795
93	0x3ba10611	0.0049140533
94	0xbc219c4b	-0.009863923
95	0x3cad6948	0.021168366
96	0x3c9ff0df	0.019524036
97	0x3ca0f1d3	0.01964656
98	0x3d51e9d1	0.051248375
99	0x3ccbf2dd	0.02489608
100	0x3ca77e28	0.020445898
101	0x3dd8b15f	0.10580706
102	0x3cbaafbd	0.022788877
103	0x3ca5c638	0.02023612
104	0x3ca41fbb	0.020034662
105	0x3c9dfa57	0.01928441
106	0x39e99580	0.0004455261
107	0xbb14bcc8	-0.002269553
108	0x3cb7557a	0.022379626
109	0x3c9f638d	0.01945665
110	0x3d3aa0bc	0.045563444
111	0x3c89c83e	0.016819116
112	0xbbd6e0c9	-0.006557558
113	0x3cb8ffcd	0.022582913
114	0xba7aee34	-0.0009572238
115	0x3a89a0d9	0.0010500207
116	0x3ca226cc	0.01979389
117	0xba93a6fe	-0.0011264978
118	0x3ca44e5b	0.020056894
119	0x3e6a8b07	0.22904597
120	0x3cb17e96	0.021666806
121	0xbbdcd0e4	-0.006738769
122	0x3d409790	0.04701954
123	0xba57af38	-0.0008227709
124	0xba05fbc5	-0.0005111064
125	0x3abe0758	0.0014498038
126	0xb9ae7909	-0.00033278044
127	0x3c8b62d3	0.017014896
128	0x3ea40b9a	0.320401
129	0x3c95b485	0.018274555
130	0x3cb1f16d	0.021721566
131	0x3cbe9bd8	0.023267671
132	0x3c9d4991	0.019200118
133	0x3928fb5a	0.00016115364
134	0xbb55a5ed	-0.003260012
135	0x3cb31ee3	0.021865314
136	0x3cc2e7d6	0.023792189
137	0x3b4f861a	0.0031665624
138	0x3cb1cba4	0.021703549
139	0x3b2519e5	0.0025192436
140	0x3cb81afb	0.022473803
141	0x3d3b9f89	0.04580644
142	0x3cb820ae	0.02247652
143	0x3cc0f999	0.023556517
144	0x3acec168	0.0015774192
145	0x3ca73c44	0.02041448
146	0x3ca1cd2c	0.019751154
147	0x3ca2c854	0.019870915
148	0x3ca782f4	0.020448186
149	0x3ca06dfc	0.019583695
150	0x3cb10875	0.021610478
151	0x3cb5c5d3	0.022189057
152	0x3cafb6e4	0.021449514
153	0x3cb37710	0.02190736
154	0x3cb3b397	0.021936221
155	0x3a7a2600	0.00095424056
156	0xbafc7d80	-0.0019263476
157	0x3c9e9294	0.019357003
158	0x3cad1a87	0.021130813
159	0x3a8925f3	0.001046358
160	0x3ca3f854	0.020015873
161	0x3cc62054	0.024185337
162	0x3c9d1f93	0.019180095
163	0x3cb746c1	0.022372605
164	0x3e4c4a1c	0.19950145
165	0xba954826	-0.00113893
166	0x3caa8770	0.020816535
167	0xbbe80f16	-0.0070818765
168	0x3cb45166	0.02201147
169	0x3d343af7	0.044001546
170	0xba57c4b1	-0.00082309084
171	0x3c9189c4	0.017765887
172	0x3cad5cfa	0.021162499
173	0x3ab83064	0.0014052507
174	0xbaadcd3f	-0.0013260021
175	0x3cb5d02e	0.022193994
176	0xbb1dcbee	-0.002407785
177	0x3c99ebea	0.01878925
178	0x3cada960	0.021198928
179	0x3cbe9092	0.023262296
180	0x3c99de73	0.01878283
181	0x3c9f54a8	0.019449547
182	0x3dd95e1b	0.10613652
183	0x3b4144ea	0.002949054
184	0x3ca705ed	0.020388568
185	0x3ca8fc4b	0.020628115
186	0xbaf51727	-0.0018698917
187	0x3caf6c56	0.021413963
188	0xba51afec	-0.00079989317
189	0x3cbcb5b2	0.023035858
190	0xbaee9b7a	-0.0018204295
191	0x3cabd6aa	0.020976383
192	0x3cb831c9	0.022484677
193	0xba0b3403	-0.00053101795
194	0x3d807852	0.06272949
195	0x3c9daf5a	0.019248653
196	0x3cbe9760	0.02326554
197	0xba4352f0	-0.00074510183
198	0x3ca47c89	0.020078914
199	0x39de8f38	0.00042449846
200	0x3e62d3f7	0.2215117
201	0x3c9a5bce	0.018842604
202	0x39714a89	0.00023011318
203	0x3dbcb6bc	0.09214541
204	0xba370638	-0.00069818227
205	0x3c9d0430	0.019167036
206	0x3d1755f6	0.036947213
207	0x3cb4b56f	0.02205917
208	0x3b223aec	0.0024754358
209	0xbb43bf65	-0.0029868719
210	0x3b428de8	0.0029686633
211	0x3cc59844	0.024120457
212	0x3b10f27a	0.0022117184
213	0x3cb5c7d3	0.02219001
214	0x3cbbece5	0.022940109
215	0x3caa9c81	0.02082658
216	0x3c9b2931	0.01894054
217	0x3dc8415b	0.097780906
218	0xbabc836e	-0.0014382431
219	0x3da59148	0.08084351
220	0x3d26e43b	0.040745
221	0x3cb4a04b	0.02204909
222	0xbb32b0a6	-0.0027265935
223	0x3c9a4690	0.018832475
224	0x3ca74a6d	0.020421231
225	0xba8140c1	-0.0009861217
226	0xb9920220	-0.00027848873
227	0x3cb4f7cc	0.022090815
228	0x3cc3c0ec	0.023895703
229	0xbafa14aa	-0.0019079645
230	0x3ca540b0	0.020172447
231	0x3cab3174	0.020897605
232	0x3cb5c283	0.022187477
233	0x3ca54b78	0.020177588
234	0x3ca46482	0.020067457
235	0x3d494c67	0.04914513
236	0x3d540419	0.05176172
237	0x3d482d30	0.04887122
238	0x3ca7fd4e	0.020506527
239	0x3e3071d9	0.1723093
240	0x3cba7ce0	0.022764623
241	0x3c9eb469	0.019373136
242	0x3cbd0578	0.023073897
243	0x3db82d48	0.08993012
244	0xbb1cbe05	-0.0023916971
245	0x3ca06f55	0.019584337
246	0x3a75d120	0.00093771704
247	0x3cae4fc3	0.021278268
248	0x39e54755	0.0004373143
249	0x3af188ac	0.0018427572
250	0x3cbebbc6	0.023282897
251	0x3c8eabac	0.017415844
252	0x3c9a63d8	0.018846437
253	0x3b3a6eb2	0.0028447327
254	0x3c97f2d3	0.018548405
255	0x3a4b1dbc	0.0007748266

l3.bias f4 [2]
0	0x3ca836e4	0.020533986
1	0x3c9a56ec	0.018840276
