matd3_actor_tmp.pth (torch, 279128 bytes, 6 tensors)

l1.weight f4 [256, 10]
-0.0023666075 0.16964133 -0.26026973 -0.23272382 -0.121796444 0.08480206 -0.0062625813 0.25073364
-0.028061809 0.08367938 -0.095568165 -0.06215942 -0.30210772 -0.20943199 -0.13035639 0.01171422
0.12501597 0.18974385 -0.2143838 -0.13770543 0.13774 0.2852747 -0.042368088 0.25982726
-0.02866156 0.0567386 0.30899775 -0.27037793 -0.1762295 -0.057839822 -0.10268773 0.2951611
-0.18292543 -0.12354346 -0.19887961 -0.27405712 -0.16282134 0.29384357 0.16315709 0.17528
0.042205244 -0.13757306 0.07927144 -0.26953265 -0.20403469 -0.13836029 0.22453491 0.20968105
-0.11461713 0.013079282 0.22521585 0.33627883 0.14840893 0.06591798 0.23449066 -0.16286866
0.08175898 -0.22213024 -0.19641805 -0.14116555 0.1561066 0.14031404 -0.17453139 0.10859141
0.18553601 -0.026889587 0.024080828 0.085807465 0.20861262 0.31530383 -0.22127117 -0.09302292
0.14706399 0.2856439 0.297644 0.30253533 0.08568806 -0.25190976 0.052284062 -0.17543188
-0.2844395 0.29049388 0.2494754 -0.30617404 0.067122094 -0.043021224 -0.043084234 -0.13512293
0.13035224 -0.1796021 0.13886595 0.1822454 0.25002456 0.14436798 -0.28734183 -0.18126564
0.18479721 0.0919558 -0.2206438 -0.15676054 0.32146925 0.23675741 -0.11502526 -0.052894324
-0.27574334 0.018491296 -0.21324474 -0.21926 0.0092428485 0.0743696 -0.11020258 0.20712668
-0.17354105 0.30733383 0.23564686 -0.24600215 -0.05859837 0.034601286 0.06630006 0.09417025
0.12409672 0.018942088 -0.15429662 0.1496355 -0.30334112 -0.1874303 -0.07916126 -0.15403877
-0.110627025 -0.25918713 -0.04363599 0.09108887 -0.18257503 0.007870603 0.24948218 -0.008448522
0.032138687 -0.0036175386 0.08764392 0.22402959 0.31357855 0.21578391 0.31435552 -0.007884978
-0.26986724 -0.1352235 0.22955644 0.012537292 -0.14309151 -0.228763 -0.17455609 -0.15908675
0.05730485 0.2990634 0.29660362 -0.18195343 0.3114025 -0.12878114 0.048638843 -0.010669493
-0.060910285 -0.062089026 -0.28376698 -0.27304304 -0.04948315 0.0040895045 -0.14365433 0.11912274
-0.28462344 -0.021341354 0.30095404 -0.1062486 0.30819824 0.13781561 -0.2632776 0.22343226
-0.0138688125 -0.11822767 0.27583453 -0.23327263 0.04729347 -0.0536422 0.23906715 0.10221315
0.16464484 0.12589188 -0.06224244 -0.052283887 -0.24702077 0.18404402 0.26333705 0.22873807
-0.20938194 0.02622877 -0.21056943 -0.16143164 -0.17283076 0.12021924 -0.17637406 0.00554845
0.037532352 0.22969458 -0.21152055 -0.19129477 -0.15766169 0.24738307 -0.088185996 0.2926461
0.14016855 0.06575279 0.020848727 -0.039593317 0.062732846 -0.048648644 0.020505186 0.06424057
-0.223922 -0.14187866 0.27853715 -0.23401432 -0.012042626 0.3241689 0.12695435 0.020928549
-0.26220435 0.16835865 -0.21328573 -0.07785829 -0.09427496 -0.03511927 0.026096964 0.28227228
0.061810866 0.3060513 0.21542332 -0.17703529 0.16414183 -0.20087771 -0.11158697 0.11486033
0.12778258 0.26011425 -0.07890234 0.024964644 0.18612085 -0.28110322 0.25327334 -0.23605657
0.02777251 -0.031486575 -0.14435305 0.06447862 0.28499117 -0.06684941 -0.16190164 -0.093480505
00000000: 1619 1bbb 75b6 2d3e 1342 85be 274f 6ebe
00000010: 6a70 f9bd b4ac ad3d 5736 cdbb 2960 803e
00000020: e1e1 e5bc 1860 ab3d 3eb9 c3bd e09a 7ebd
00000030: ddad 9abe 5775 56be 257c 05be 00ed 3f3c
00000040: 3004 003e 364c 423e 6d87 5bbe a702 0dbe
00000050: b70b 0d3e 870f 923e 298a 2dbd 1408 853e
00000060: a6cb eabc bc66 683d f434 9e3e fa6e 8abe
00000070: 8275 34be 73e9 6cbd f24d d2bd 5b1f 973e
00000080: ce50 3bbe 5b04 fdbd 19a7 4bbe 3751 8cbe
00000090: a3ba 26be aa72 963e a712 273e 9a7c 333e
000000a0: 68df 2c3d f4df 0cbe 1159 a23d 2f00 8abe
000000b0: 78ee 50be 52ae 0dbe 7bec 653e a1b6 563e
000000c0: 63bc eabd 7c4a 563c fc9e 663e bd2c ac3e
000000d0: 83f8 173e 0200 873d 521e 703e 0bc7 26be
000000e0: 4171 a73d 1c76 63be d021 49be b48d 10be
000000f0: 69da 1f3e 7cae 0f3e 5bb8 32be 2c65 de3d
00000100: 27fd 3d3e 8d47 dcbc 2845 c53c d3bb af3d
00000110: 8c9e 553e 816f a13e e994 62be cd82 bebd
00000120: f197 163e eb3f 923e cb64 983e e9e5 9a3e
00000130: 397d af3d 51fa 80be d027 563d 6aa4 33be
00000140: 0ea2 91be 9dbb 943e 7b76 7f3e d8c2 9cbe
00000150: 4f77 893d 0637 30bd 1879 30bd aa5d 0abe
00000160: 0f7b 053e 9de9 37be e032 0e3e 8a9e 3a3e
00000170: 3803 803e 33d5 133e 781e 93be b39d 39be
00000180: 7b3b 3d3e 5353 bc3d 73f0 61be d685 20be
00000190: 9e97 a43e 8970 723e 5d92 ebbd b8a7 58bd
000001a0: 3b2e 8dbe 0f7b 973c d45c 5abe b285 60be
000001b0: 516f 173c 174f 983d e4b1 e1bd 0419 543e
000001c0: bfb4 31be dc5a 9d3e 694d 713e fde7 7bbe
000001d0: d804 70bd 14ba 0d3d 53c8 873d 55dc c03d
000001e0: 6c26 fe3d 702c 9b3c efff 1dbe 0c3a 193e
000001f0: 874f 9bbe bbed 3fbe 4c1f a2bd 57bc 1dbe
00000200: 6c90 e2bd 2db4 84be a7bb 32bd cd8c ba3d
00000210: f3f4 3abe b4f3 003c 4278 7f3e ab6b 0abc
00000220: dba3 033d 3a14 6dbb a87e b33d 0368 653e
00000230: 5e8d a03e 75f6 5c3e 35f3 a03e ff2f 01bc
00000240: 0a2c 8abe 0778 0abe d810 6b3e 3769 4d3c
00000250: 9586 12be d940 6abe d5be 32be a3e7 22be
00000260: 7eb8 6a3d d71e 993e 6edc 973e 0052 3abe
00000270: 2670 9f3e 34df 03be 8639 473d 19cf 2ebc
00000280: 107d 79bd 1051 7ebd e849 91be 4ccc 8bbe
00000290: d8ae 4abd 4001 863b 1f1a 13be a0f6 f33d
000002a0: 2aba 91be 10d4 aebc a616 9a3e de98 d9bd
000002b0: 29cc 9d3e 891f 0d3e 52cc 86be 6dcb 643e
000002c0: 043a 63bc 5921 f2bd 2f3a 8d3e 05df 6ebe
000002d0: ccb6 413d ecb7 5bbd 05ce 743e 2155 d13d
000002e0: a898 283e cde9 003e eef1 7ebd a127 56bd
000002f0: 03f3 7cbe 0976 3c3e 1dd4 863e 503a 6a3e
00000300: 3868 56be b8dd d63c 839f 57be 564e 25be
00000310: 8cfa 30be 8135 f63d 679b 34be c6cf b53b
00000320: 86bb 193d 0e35 6b3e d898 58be c7e2 43be
00000330: 1172 21be fd51 7d3e dc9a b4bd b6d5 953e
00000340: 5888 0f3e 66a9 863d f3ca aa3c 9a2c 22bd
00000350: 147a 803d cd43 47bd 7efa a73c 8f90 833d
00000360: cf4b 65be a448 11be 6c9c 8e3e 73a1 6fbe
00000370: 6f4e 45bc 77f9 a53e 5200 023e 5972 ab3c
00000380: a63f 86be 3666 2c3e 9367 5abe 2b74 9fbd
00000390: 3b13 c1bd 39d9 0fbd 4dc9 d53c fe85 903e
000003a0: 642d 7d3d c2b2 9c3e ee97 5c3e bd48 35be
000003b0: cc14 283e e3b2 4dbe b687 e4bd e53b eb3d
000003c0: 70d9 023e b22d 853e 8d97 a1bd a782 cc3c
000003d0: 7796 3e3e c3ec 8fbe 0bad 813e d0b8 71be
000003e0: 2d83 e33c 11f8 00bd 49d1 13be 5e0d 843d
000003f0: 5dea 913e 58e8 88bd 8bc9 25be b572 bfbd

l1.bias f4 [256]
-0.20775372 -0.22003959 0.2333414 -0.080326 0.0047861384 0.11606599 -0.18113352 0.051686537
0.19788827 -0.16093095 0.1165165 0.009589081 0.1738734 0.23416565 0.09860907 0.13622938
-0.27221856 0.14919652 0.2068115 -0.10251565 -0.28796023 0.2799792 -0.0624391 0.08610631
-0.06437736 0.22544466 0.3294009 0.3166851 -0.058176484 0.24125311 0.17624064 0.054572187
-0.24129562 -0.119879186 -0.2943341 0.22443919 0.32768607 0.20796053 0.1240693 0.0983713
0.32758096 -0.1388959 -0.10206765 -0.2839341 0.12255197 0.042925257 0.21587093 -0.1990131
-0.010596989 -0.24152917 -0.23618826 0.05338035 -0.30868647 0.10757242 -0.2912991 -0.1983476
-0.039723154 -0.28598633 0.27913722 0.26976213 -0.16517492 0.08563013 0.18573575 0.11426321
-0.018834116 -0.29826972 0.2522263 -0.22479019 -0.035738576 0.04279032 -0.07749422 -0.10482211
-0.2733063 0.030770423 -0.010915606 0.2969389 -0.07255683 0.26619706 0.014968711 -0.11193751
-0.052107614 -0.018286424 0.014713411 -0.028975807 0.11740906 0.27482942 0.07352833 0.13862102
0.21141861 0.08592521 0.16832441 0.18790098 0.31011236 -0.26186326 0.108210415 -0.01952262
-0.033249408 -0.103172675 0.21748824 0.31138587 -0.2580703 0.19376346 0.23613495 0.07986197
0.026935665 0.2670478 0.031132752 -0.058173165 -0.0017908626 0.11850873 0.08125224 -0.017061502
0.09982252 0.09857248 -0.25616312 0.09882169 0.2899364 0.036297288 -0.0006029135 0.2656376
-0.25758472 -0.14433789 -0.11766138 0.29647797 -0.30586237 0.054484148 -0.2830256 0.011126142
0.14249243 -0.054098237 0.32690597 0.025234466 -0.16122244 0.09678697 0.18780585 0.021198416
0.2937939 -0.2045969 0.15763827 0.20132335 0.18042673 -0.0036458399 0.09061551 -0.24808426
-0.24816154 -0.008573556 -0.016706755 0.2585616 0.24599634 0.23676176 -0.11880106 -0.24825051
-0.27530324 0.13765703 -0.26195943 -0.31567705 -0.15981524 -0.26699233 -0.098942205 -0.17668039
-0.14107625 0.31148624 -0.036619574 0.28494996 -0.0030166314 -0.019219205 -0.071893066 -0.2260482
-0.25407255 0.24124217 -0.09744862 -0.28364855 0.3135581 0.027716987 -0.21160395 -0.22539864
-0.26556337 -0.2815639 0.3043344 0.23818146 0.049913056 -0.25068152 -0.08933926 -0.27600875
0.1298895 -0.0634985 -0.04866964 0.1332626 0.1318783 0.18959282 0.09488648 -0.017174967
-0.007116323 0.020000998 -0.17639679 0.32124782 -0.1363835 0.20615558 -0.15433508 0.022082299
0.12981832 -0.29035416 0.16908157 -0.21782017 0.067349866 -0.044618603 0.20207469 0.3303855
0.05594499 0.014588931 -0.13326903 0.1362299 -0.12789063 0.15259501 -0.13706183 0.23756249
0.2654558 0.21711436 0.014167279 0.1770452 -0.28815705 0.27839008 -0.06401434 0.13550057
-0.053549558 -0.08373657 -0.13241108 0.2273539 -0.17204349 -0.032530505 0.18776107 0.055557836
-0.24288489 -0.3144489 -0.13170913 0.31128588 -0.22645313 0.19538577 0.24489944 -0.13305947
-0.14085351 -0.22750573 0.11159543 -0.021482203 0.036710326 0.1606071 0.15661484 -0.105391115
0.02171889 0.096428856 0.029788088 0.088720225 -0.12810062 0.27535036 -0.032435566 -0.016334737
00000000: 64bd 54be 0f52 61be 0cf1 6e3e f581 a4bd
00000010: 0ad5 9c3b 01b4 ed3d 117b 39be 43b5 533d
00000020: 39a3 4a3e 15cb 24be 34a0 ee3d 851b 1d3c
00000030: de0b 323e 1fc9 6f3e 8df3 c93d b77f 0b3e
00000040: 3b60 8bbe f9c6 183e 65c6 533e baf3 d1bd
00000050: 866f 93be 6f59 8f3e 24c0 7fbd 8158 b03d
00000060: 47d8 83bd f7da 663e 3ca7 a83e 8d24 a23e
00000070: 774a 6ebd 0e0b 773e 6d78 343e 1687 5f3d
00000080: 3316 77be 3883 f5bd f6b2 96be 63d3 653e
00000090: 78c6 a73e 9bf3 543e 0c18 fe3d e476 c93d
000000a0: b1b8 a73e ba3a 0ebe d808 d1bd cf5f 91be
000000b0: 87fc fa3d 65d2 2f3d 450d 5d3e 17ca 4bbe
000000c0: fe9e 2dbc 6c53 77be 56db 71be 5ba5 5a3d
000000d0: 270c 9ebe ee4e dc3d 2825 95be a21b 4bbe
000000e0: bfb4 22bd cd6c 92be 13eb 8e3e 431e 8a3e
000000f0: 9d23 29be d95e af3d 8331 3e3e d402 ea3d
00000100: 014a 9abc cfb6 98be ce23 813e 662f 66be
00000110: 9d62 12bd e744 2f3d 4ab5 9ebd f9ac d6bd
00000120: ceee 8bbe 4112 fc3c 5fd7 32bc 6008 983e
00000130: ad98 94bd fb4a 883e 533f 753c 7e3f e5bd
00000140: cb6e 55bd 69cd 95bc 8510 713c ac5e edbc
00000150: 2974 f03d 71b6 8c3e 0596 963d abf2 0d3e
00000160: 1f7e 583e 8ef9 af3d 3c5d 2c3e 1d69 403e
00000170: 0cc7 9e3e f112 86be 6c9d dd3d e7ed 9fbc
00000180: 8830 08bd 324c d3bd 3db5 5e3e f86d 9f3e
00000190: ca21 84be ee69 463e 5ccd 713e ac8e a33d
000001a0: 2fa8 dc3c 7dba 883e 1d0a ff3c fc46 6ebd
000001b0: 61bb eaba b4b4 f23d 9367 a63d 90c4 8bbc
000001c0: c06f cc3d 5ee0 c93d d027 83be 0763 ca3d
000001d0: 8b72 943e 77ac 143d d70c 1eba a701 883e
000001e0: 25e2 83be 50cd 13be 73f8 f0bd f6cb 973e
000001f0: fe99 9cbe c52a 5f3d bbe8 90be 6c4a 363c
00000200: 89e9 113e 1d96 5dbd 3860 a73e 83b8 ce3c
00000210: 7f17 25be 3f38 c63d 2d50 403e 4da8 ad3c
00000220: 276c 963e da81 51be ed6b 213e b527 4e3e
00000230: c9c1 383e 0bef 6ebb a094 b93d cd09 7ebe
00000240: 0f1e 7ebe 1a78 0cbc 9bdc 88bc 3062 843e
00000250: 77e6 7b3e ad71 723e f84d f3bd 6235 7ebe
00000260: 8cf4 8cbe f7f5 0c3e 8c1f 86be 6ca0 a1be
00000270: 9ba6 23be 38b3 88be 36a2 cabd b4eb 34be
00000280: 4b76 10be 207b 9f3e 68fe 15bd f6e4 913e
00000290: adb2 45bb 9871 9dbc ac3c 93bd 2e79 67be
000002a0: cc15 82be 3008 773e 2493 c7bd 623a 91be
000002b0: b08a a03e bc0e e33c b5ae 58be e7ce 66be
000002c0: ecf7 87be 2529 90be b8d1 9b3e d7e5 733e
000002d0: a271 4c3d 5459 80be 80f7 b6bd 0551 8dbe
000002e0: c101 053e 800b 82bd d159 47bd fe75 083e
000002f0: 1b0b 073e 9f24 423e d853 c23d 84b2 8cbc
00000300: 0b30 e9bb 22d9 a33c 5ca1 34be 987a a43e
00000310: 1ea8 0bbe 731a 533e 040a 1ebe f0e5 b43c
00000320: 18ef 043e 4da9 94be b823 2d3e 400c 5fbe
00000330: baee 893d ffc1 36bd abec 4e3e 4a28 a93e
00000340: 9326 653d 6906 6f3c ad77 08be da7f 0b3e
00000350: c3f5 02be de41 1c3e f059 0cbe 9543 733e
00000360: d3e9 873e 3a53 5e3e e01d 683c 564b 353e
00000370: 5289 93be 2589 8e3e f319 83bd a9c0 0a3e
00000380: c856 5bbd 147e abbd c596 07be 76cf 683e
00000390: 2b2c 30be b53e 05bd 7044 403e 9d90 633d
000003a0: d1b6 78be 72ff a0be c2de 06be dd60 9f3e
000003b0: 54e3 67be 3513 483e ebc6 7a3e be40 08be
000003c0: e73b 10be 43f7 68be 258c e43d 72fb afbc
000003d0: 915d 163d 3076 243e a45f 203e 4cd7 d7bd
000003e0: d0eb b13c 7e7c c53d 2606 f43c f3b2 b53d
000003f0: cf2c 03be b9fa 8c3e 28db 04bd 6dd0 85bc

l2.weight f4 [256, 256]
-0.056094542 -0.04530426 0.023197947 0.016112223 -0.009525563 0.053867243 0.014938635 0.043242585
0.07407254 -0.0032189738 -0.008341447 0.008350106 -0.0052925646 -0.010449681 0.006811124 0.10374588
0.028035067 0.079351716 0.06721178 0.030652128 0.019560447 0.03848631 0.021357073 0.01254295
0.037667293 -0.034041345 -0.03238686 0.09773066 0.008179588 -0.009372631 -0.036602017 0.06342317
0.020416781 -0.012752658 -0.0030934236 0.037698846 -0.023469461 0.025147753 0.020029584 0.04370975
0.04553233 -0.020541633 0.027106928 0.047194876 0.10179477 0.053153887 0.07179506 0.032962304
0.041515782 -0.010005254 0.058878858 -0.037288845 -0.023477256 -0.014669867 -0.037101913 -0.018611576
-0.036682732 0.031639107 0.008548479 -0.031890236 -2.5704503e-05 0.0104231145 0.04778219 -0.027626418
-0.0018137158 0.012867452 0.0474098 0.056070007 0.03802098 0.083238885 0.004976007 0.06352159
0.05383677 -0.03221752 0.03633526 0.056814123 0.0188559 0.055357557 0.0021262402 0.074057035
0.022380654 -0.017892392 0.06915653 0.04322074 0.074012764 0.03796698 0.053939875 0.060582224
0.03116383 0.0068090474 0.03385813 -0.022718713 0.022796614 0.0025555007 0.0039515197 -0.04941027
0.059418943 -0.036516532 0.04734951 0.06208338 -0.057280995 0.077520825 -0.024746628 0.01048201
0.053441305 0.001270951 0.07635634 -0.008318436 0.013289397 -0.017621616 -0.008061838 0.06099037
0.04700397 0.027099565 0.005138904 -0.032240093 0.14939232 -0.009371378 -0.00152806 -0.028849524
0.07452151 0.029636718 0.0602466 0.02749138 -0.04241065 0.046269316 0.027854756 0.041942365
0.006846539 -0.007862588 0.07238847 0.042393573 -0.025366202 0.027214747 0.007210462 0.015598599
0.05589525 -0.047924686 0.077393875 0.06276981 0.022714874 -0.0058010677 0.012746196 -0.041369274
0.040596925 -0.012348117 0.035710096 -0.040506147 0.05068093 0.0634718 0.069291495 0.005101569
0.05919723 0.04235965 0.065672904 0.035269238 -0.054683007 0.006588809 0.001737988 -0.010483837
0.065953 0.013546489 0.030330107 0.06030009 0.04895545 0.05484892 0.011364361 -0.05571217
-0.05999905 0.04059465 -0.00074169785 -0.018000288 0.048753932 0.07737603 0.03614843 0.013312385
0.008445315 -0.036021505 0.050569892 -0.027660001 0.066840194 -0.006967547 -0.01944211 -0.035047017
0.00971196 0.014582943 -0.0079103 0.11823242 0.03753978 -0.034017604 0.01609841 0.04182853
0.08198475 0.02187644 0.08341599 0.0174197 -0.023971438 0.060245335 -0.03587462 0.07450946
0.083132364 -0.01706402 0.045709357 0.083958596 0.03987512 0.045882523 0.04534538 -0.0045852577
0.015594541 -0.011496718 0.07405187 -0.0054636397 0.03641446 0.0031465665 0.031256102 0.022092957
0.05574672 0.004371004 -0.014751162 0.049967658 -0.035173826 -0.030225724 0.0464299 -0.01652808
-0.023492165 0.0051550455 0.026351985 -0.00072419737 -0.022493869 0.0056244843 0.06745001 0.040782988
-0.008034578 -0.043201886 0.023695808 0.040834665 -0.0012339867 0.05764542 0.07364286 0.018393578
0.020624265 0.036260225 0.037068106 0.031924535 0.073733404 -0.009061955 0.025662877 -0.02142063
-0.048057735 0.054556273 0.07164625 -0.010917259 0.023424186 0.040535685 0.024404041 0.056858018
00000000: 64c3 65bd f690 39bd 9f09 be3c c8fd 833c
00000010: 1b11 1cbc e6a3 5c3d 2dc1 743c 231f 313d
00000020: 58b3 973d 6bf5 52bb 91aa 08bc e2ce 083c
00000030: 406d adbb 2435 2bbc d92f df3b b878 d43d
00000040: cca9 e53c 2783 a23d 54a6 893d 2c1a fb3c
00000050: 3b3d a03c d2a3 1d3d 07f5 ae3c f280 4d3c
00000060: 0549 1a3d f06e 0bbd 16a8 04bd 0327 c83d
00000070: ae03 063c aa8f 19bc ffeb 15bd 02e4 813d
00000080: 1841 a73c 86f0 50bc 09bb 4abb 1b6a 1a3d
00000090: 0743 c0bc a902 ce3c 1515 a43c ff08 333d
000000a0: 1c80 3a3d ed46 a8bc 590f de3c 6a4f 413d
000000b0: c779 d03d e4b7 593d 4a09 933d 7b03 073d
000000c0: 740c 2a3d 14ed 23bc f52a 713d 30bc 18bd
000000d0: 6053 c0bc e259 70bc 2df8 17bd 4e77 98bc
000000e0: a240 16bd 0298 013d eb0e 0c3c 569f 02bd
000000f0: 00a0 d7b7 b6c5 2a3c 42b7 433d cc50 e2bc
00000100: 34ba edba 01d2 523c c730 423d aaa9 653d
00000110: e3bb 1b3d 2679 aa3d c60d a33b 9b17 823d
00000120: f283 5c3d 85f6 03bd 48d4 143d edb5 683d
00000130: b077 9a3c 9bbe 623d 6458 0b3b 37ab 973d
00000140: a257 b73c 1193 92bc f0a1 8d3d 3b08 313d
00000150: 0194 973d 4483 1b3d 0ff0 5c3d 1125 783d
00000160: 4a4b ff3c 6e1e df3b d3ae 0a3d 981c babc
00000170: f7bf ba3c 307a 273b c07b 813b 6c62 4abd
00000180: 4761 733d 5c92 15bd 8ff1 413d 244b 7e3d
00000190: 7a9f 6abd 3dc3 9e3d 71b9 cabc bdbc 2b3c
000001a0: 45e5 5a3d 0a96 a63a b660 9c3d 0d4a 08bc
000001b0: c5bb 593c 355b 90bc cd15 04bc 0ad1 793d
000001c0: 3c87 403d e8ff dd3c 4064 a83b 300e 04bd
000001d0: 4dfa 183e 698a 19bc 2f49 c8ba d655 ecbc
000001e0: bc9e 983d b4c8 f23c 24c5 763d 9a35 e13c
000001f0: cab6 2dbd e584 3d3d a82f e43c c2cb 2b3d
00000200: ef58 e03b 16d2 00bc 6840 943d e2a4 2d3d
00000210: c8cc cfbc 76f1 de3c bd45 ec3b 4491 7f3c
00000220: 6bf2 643d ad4c 44bd ae80 9e3d 758d 803d
00000230: 8b14 ba3c e216 bebb 6cd5 503c d472 29bd
00000240: f648 263d c24f 4abc c044 123d c6e9 25bd
00000250: cf96 4f3d 81fd 813d b3e8 8d3d 102b a73b
00000260: cb78 723d 5081 2d3d 847f 863d 7a76 103d
00000270: 4afb 5fbd f0e6 d73b 33cd e33a 66c4 2bbc
00000280: 5e12 873d 18f2 5d3c d876 f83c 3afd 763d
00000290: 8385 483d 43a9 603d 9631 3a3c 7232 64bd
000002a0: 90c1 75bd 9346 263d 806e 42ba 5775 93bc
000002b0: 34b2 473d 5377 9e3d 6010 143d 311c 5a3c
000002c0: 385e 0a3c 498b 13bd 6022 4f3d 3a97 e2bc
000002d0: 83e3 883d 0550 e4bb 0f45 9fbc 768d 0fbd
000002e0: ea1e 1f3c 4ced 6e3c 349a 01bc d723 f23d
000002f0: 50c3 193d 0b56 0bbd d0e0 833c 6554 2b3d
00000300: 9fe7 a73d 3836 b33c 01d6 aa3d c2b3 8e3c
00000310: c05f c4bc d0c3 763d 44f1 12bd 6a98 983d
00000320: 4d41 aa3d d8c9 8bbc bc39 3b3d 7cf2 ab3d
00000330: 1854 233d 50ef 3b3d 14bc 393d ee3f 96bb
00000340: 3f80 7f3c bb5c 3cbc 82a8 973d 5508 b3bb
00000350: 5427 153d a036 4e3b 6606 003d 4afc b43c
00000360: ac56 643d a43a 8f3b dcae 71bc e3aa 4c3d
00000370: 6e12 10bd f09b f7bc 472d 3e3d e565 87bc
00000380: a472 c0bc a8eb a83b 1ee0 d73c 10d8 3dba
00000390: 1045 b8bc 984d b83b 3b23 8a3d 100c 273d
000003a0: 76a3 03bc 76f4 30bd b61d c23c 4042 273d
000003b0: b9bd a1ba 9b1d 6c3d 11d2 963d 21ae 963c
000003c0: 38f4 a83c 9a85 143d bad4 173d 4dc3 023d
000003d0: 8a01 973d 9878 14bc f43a d23c 517a afbc
000003e0: 30d8 44bd 6676 5f3d 45bb 923d 4ede 32bc
000003f0: 14e4 bf3c bf08 263d fcea c73c f4e3 683d

l2.bias f4 [256]
-0.005842601 0.011634782 0.014477062 0.0053093713 0.07540893 0.0683199 -0.0013958812 -0.03978163
-0.047015548 0.061510324 0.08149718 0.0024390763 -0.021856725 0.012904464 0.015706332 0.05284328
0.021427192 -0.03600681 0.0670536 0.04392875 0.15900157 0.053155705 0.044383112 0.015201074
-0.022429785 0.08311008 0.028739654 0.07046626 -0.011967808 -0.04581323 0.035034664 0.015605437
0.00414385 0.011692077 0.06230983 -0.02534353 -0.02830818 0.044708896 0.06025678 0.06996701
0.035453912 0.04921433 0.004192191 0.06216135 0.053071883 -0.030056521 0.05776139 -0.0022533126
0.07866163 -0.060233675 0.07543527 -0.03165709 0.009357289 0.025342237 -0.004496483 -0.031450078
-0.05801972 0.0054075792 0.027888022 0.012680374 -0.0030707608 0.04266268 0.057253256 0.06975113
-0.041927457 0.07272214 -0.029254533 -0.021655073 0.0009924588 0.066230126 0.0024995736 -0.024029277
-0.044431597 -0.049547426 0.06439673 -0.037086636 -0.062278062 -0.009205464 0.067039125 -0.026667114
0.0027338373 0.04023905 -0.008320449 0.06065403 0.050182883 0.08577225 0.053576402 -0.034264132
0.05029882 -0.06083918 -0.007154678 0.050892726 -0.008941014 0.035580292 0.026408484 0.0042698784
-0.026704147 -0.04021388 0.07320318 0.07927893 0.05409676 -0.04027331 0.06603601 0.061920013
-0.0016149357 -0.022000935 0.06608869 0.03586042 0.049934965 0.06914631 -0.019120298 -0.006001412
0.07755339 0.04965669 -0.042226147 -0.053069703 0.029277334 0.04167567 0.038613528 -0.0025732724
-0.03203477 0.0139969615 0.0013072415 0.0009321943 0.070830114 -0.032427914 0.0054890346 0.058093272
-0.039817043 0.03202862 -0.03234281 0.045237675 -0.026022345 0.03422894 0.048966654 0.04902115
-0.0021366049 -0.026395412 0.0245784 0.0783062 0.019624459 -0.0106190005 -0.0216887 -0.009819112
-0.004615529 0.044852987 0.083406754 -0.009937121 -0.059757493 -0.023791574 0.060353007 0.054750405
-0.013274556 -0.021911139 0.057907656 0.07688054 0.012435796 0.008719883 -0.05304461 0.060791865
0.07326017 0.06534351 0.0323546 0.047177136 -0.033570077 0.065140076 0.03967285 0.019059183
-0.040806837 0.023538034 0.0370455 0.028540058 -0.035700846 -0.037034824 -0.031585626 -0.04482248
0.022178574 0.025239136 -0.0593459 -0.043644346 -0.03899397 0.054188598 -0.012477417 -0.05865467
-0.04066971 -0.041443422 -0.025550831 0.059161905 0.00979233 -0.028038938 0.020644026 0.015028405
-0.022718566 -0.008631897 0.07374601 0.012297178 0.080238745 0.033596415 0.07555793 -0.04525788
-0.019520089 -0.027800566 0.047729634 0.07429182 0.04251268 0.06625783 -0.015723499 0.054688778
0.05031097 -0.028610371 0.019703478 0.031091664 0.052047346 0.043750208 0.080397055 -0.015807927
0.062140968 -0.03236238 0.004446266 -0.00010448514 0.068422854 0.01728835 0.07015333 0.04681823
0.025944065 -0.0036237985 0.064786464 0.048524536 -0.013426246 0.056215316 -0.04304563 0.027847333
-0.02876579 0.04080724 -0.026651606 0.021600978 0.00056346593 0.037901334 -0.018057501 -0.015582114
0.0732574 -0.050014637 -0.050463676 -0.031075707 0.028261954 0.07175821 -0.04391262 0.051461272
0.06699022 0.056978855 -0.02062238 -0.01496179 0.060436837 -0.032081313 -0.02039223 0.04618267
00000000: 4a73 bfbb d09f 3e3c 3331 6d3c 3cfa ad3b
00000010: ff6f 9a3d 4eeb 8b3d 00f6 b6ba 10f2 22bd
00000020: 6093 40bd 40f2 7b3d fee7 a63d e9d8 1f3b
00000030: e00c b3bc 3f6d 533c 91aa 803c 3272 583d
00000040: 1488 af3c e07b 13bd 6653 893d a2ee 333d
00000050: 4fd1 223e ccb9 593d 11cb 353d ed0d 793c
00000060: abbe b7bc 9e35 aa3d 6c6f eb3c 9d50 903d
00000070: a014 44bc a7a6 3bbd 8280 0f3d f2ad 7f3c
00000080: 22c9 873b 2090 3f3c 9838 7f3d 3c9d cfbc
00000090: 8ee6 e7bc ad20 373d d0cf 763d dd4a 8f3d
000000a0: 1f38 113d f794 493d a65e 893b e69c 7e3d
000000b0: e761 593d 1839 f6bc 3597 6c3d 50ac 13bb
000000c0: 5919 a13d 96b7 76bd cf7d 9a3d ddaa 01bd
000000d0: 514f 193c 869a cf3c 3c57 93bb ccd1 00bd
000000e0: 16a6 6dbd 1032 b13b 6c75 e43c 58c1 4f3c
000000f0: d13e 49bb 10bf 2e3d 6482 6a3d aed9 8e3d
00000100: 20bc 2bbd 58ef 943d 34a7 efbc fb65 b1bc
00000110: 6415 823a a9a3 873d e3cf 233b 0cd9 c4bc
00000120: e8fd 35bd 3ef2 4abd 6fe2 833d 28e8 17bd
00000130: 4817 7fbd 84d2 16bc cf4b 893d fe74 dabc
00000140: 2e2a 333b b4d1 243d 7e52 08bc 5c70 783d
00000150: 918c 4d3d 5da9 af3d ee72 5b3d 8c58 0cbd
00000160: 2306 4e3d 8132 79bd ca71 eabb e474 503d
00000170: 557d 12bc a4bc 113d 9b56 d83c 56ea 8b3b
00000180: a8c2 dabc 4fb7 24bd 8deb 953d fe5c a23d
00000190: 9094 5d3d a0f5 24bd e33d 873d d79f 7d3d
000001a0: 40ac d3ba 4e3b b4bc 8259 873d 60e2 123d
000001b0: 9b88 4c3d 959c 8d3d 2ca2 9cbc 7ea7 c4bb
000001c0: 50d4 9e3d d064 4b3d 53f5 2cbd 9e5f 59bd
000001d0: 05d7 ef3c 1bb4 2a3d 3829 1e3d 59a4 28bb
000001e0: e436 03bd 8353 653c bf57 ab3a 805e 743a
000001f0: 610f 913d 22d3 04bd 5cdd b33b 36f3 6d3d
00000200: 3217 23bd 7130 033d e579 04bd 244b 393d
00000210: d02c d5bc a533 0c3d 4291 483d 67ca 483d
00000220: 4806 0cbb 313b d8bc a458 c93c 005f a03d
00000230: 79c3 a03c 51fb 2dbc 80ac b1bc 57e0 20bc
00000240: dd3d 97bb c4b7 373d 29d1 aa3d 4ecf 22bc
00000250: 46c4 74bd 8ce6 c2bc b734 773d f641 603d
00000260: 867d 59bc fd7e b3bc 9430 6d3d 8b73 9d3d
00000270: 82bf 4b3c d7dd 0e3c 4e45 59bd e400 793d
00000280: 6e09 963d d1d2 853d 4286 043d d03c 413d
00000290: c780 09bd 2968 853d 0080 223d 0122 9c3c
000002a0: 1225 27bd d6d2 c03c 06bd 173d d7cc e93c
000002b0: 0d3b 12bd d4b1 17bd ee5f 01bd c797 37bd
000002c0: d7af b53c 4ec2 ce3c b014 73bd 6ac4 32bd
000002d0: 24b8 1fbd ddf4 5d3d 146e 4cbc e13f 70bd
000002e0: 4895 26bd 94c0 29bd fa4f d1bc c153 723d
000002f0: 0270 203c eab1 e5bc a91d a93c b339 763c
00000300: 491c babc cd6c 0dbc 2608 973d 1a7a 493c
00000310: 3654 a43d 659c 093d 1ebe 9a3d 5460 39bd
00000320: 98e8 9fbc 03be e3bc 2680 433d 4f26 983d
00000330: c721 2e3d 2fb2 873d 91ce 80bc 5701 603d
00000340: e012 4e3d 4c60 eabc 3069 a13c f2b3 fe3c
00000350: 992f 553d 6b33 333d 36a7 a43d a07f 81bc
00000360: 8787 7e3d 6a8e 04bd fcb1 913b 081f dbb8
00000370: 4821 8c3d 4ca0 8d3c 8dac 8f3d 79c4 3f3d
00000380: a688 d43c 407d 6dbb c4ae 843d aac1 463d
00000390: c2f9 5bbc 0842 663d 9d50 30bd 1720 e43c
000003a0: 3ca6 ebbc 7e25 273d 7854 dabc 89f4 b03c
000003b0: 8fb5 133a 6e3e 1b3d 53ed 93bc 204c 7fbc
000003c0: fa07 963d 26dc 4cbd 00b3 4ebd 7b92 febc
000003d0: 9d85 e73c f8f5 923d b8dd 33bd 0ec9 523d
000003e0: 2b32 893d a962 693d 44f0 a8bc 4c22 75bc
000003f0: 9e8c 773d b267 03bd 9b0d a7bc 0a2a 3d3d

l3.weight f4 [2, 256]
-0.015262113 0.0002615573 -0.022894932 -0.017383473 -0.019498246 -0.01647198 -0.00097068003 -0.002316734
-0.0010748649 -0.018387035 -0.016746417 -0.01680951 -0.017137064 -0.015852973 -0.017574647 -0.016715238
-0.021968946 -0.020629011 -0.017879961 -0.018844398 -0.26885015 -0.019487157 -0.014557369 -0.12848039
0.0021025725 -0.015509839 -0.010453014 -0.021737868 -0.0022374967 0.004037672 -0.016659647 -0.019614639
-0.016844446 -0.01958804 -0.019958789 -0.017899603 -0.015649365 -0.015874041 0.0016372907 -0.017630706
-0.020562839 -0.019794982 -0.016554914 -0.016541947 -0.017121421 0.0012671249 -0.021200044 -0.017553594
-0.01621164 0.0015662152 -0.018204216 -0.018386586 -0.015715143 -0.029821513 -0.018692277 -0.019210946
-0.00095536886 -0.00026139454 -0.015940899 0.0023505376 -0.016745646 -0.02121282 -0.020550832 -0.020717442
-0.020165652 -0.018059965 -0.0005924045 -0.018851874 -0.01738534 -0.018130196 -0.016643634 -0.020378876
0.0016819257 -0.0002974776 -0.021068225 0.0042929067 0.00024769618 -0.007842605 -0.022046562 -0.017972419
-0.023161612 -0.018085994 -0.016247801 -0.13231969 -0.010860546 -0.0799636 -0.01697884 0.0013867063
-0.0170426 -0.0017563542 -0.0012548385 -0.018021531 -0.020091873 -0.0005868862 -0.019257609 -0.01942848
-0.00222434 -0.018933967 -0.02238742 -0.019959122 -0.012834461 0.0026102727 -0.017522212 -0.017517103
-0.0015448047 -0.021558573 -0.020971341 -0.018795742 -0.01784162 -0.020507284 0.0009816326 -0.02087351
-0.0148319695 -0.12854418 -0.0009823561 -0.0014751109 -0.021877646 0.0008835431 -0.0189974 -0.014926627
-0.0013577675 -0.017533595 -0.02162993 -0.001203273 -0.02165842 -0.00027479883 0.00061224314 -0.019698171
-0.0025258344 -0.019480053 -0.019069908 -0.022438698 0.00018954859 -0.016120488 -0.00039614085 -0.021830391
-0.02105253 -0.023738084 -0.018434973 -0.019274347 -0.017303886 0.0019125708 0.0026085149 -0.01905951
-0.018665366 -0.016537968 -0.08536187 -0.0129015725 0.0029469598 0.0006651543 -0.06801789 -0.019079065
-0.018554645 0.00076967716 -0.018423403 -0.020386605 -0.022063654 -0.018955082 -0.0017499733 -0.020539291
-0.021688152 -0.01568159 -0.0020096647 -0.021088459 -0.019434474 -0.016380062 0.0026147668 -0.023918016
-0.020497099 -0.017739853 0.0037804318 -0.020872938 -0.019175317 -0.00076952996 0.000905999 0.0008719217
-0.016256133 -0.02059208 -0.0014692673 0.0012852736 0.0016877828 0.00037686838 -0.02153412 -0.00050276855
-0.0025091367 0.00037325127 -0.015138181 -0.019530486 -0.0013597566 -0.018746309 -0.020046927 -0.019261265
-0.018682523 -0.00084376836 -0.020244395 0.002086452 -0.017455427 -0.023671724 -0.020641936 0.00016665553
-0.021191016 -0.01956941 -0.0015056748 -0.12243294 -0.019904463 -0.02134133 -0.001448899 -0.020873288
-0.020019624 -0.0019658245 -0.0012678269 -0.021246597 0.0018956889 -0.023475017 -0.022084424 0.002224551
-0.015114795 -0.021249712 -0.01899 -0.019487863 -0.018503038 -0.0015273925 -0.01865235 -0.020968525
-0.019878684 0.0025595748 -0.021204134 -0.013009974 -0.017503403 4.9360096e-06 0.001930868 -0.02589278
-0.0029938275 -0.017764825 0.00064211944 -0.018390382 -0.020438312 -0.020492444 0.0010898142 0.0017211679
-0.021494687 -0.0005765181 -0.00026107416 -0.01629737 -0.02054816 -0.019614525 0.0009076642 -0.0026486376
-0.017901298 0.0007955262 -0.0014654668 -0.019697642 -0.019084005 -0.018926037 -0.019288441 -0.01742351
00000000: f10d 7abc a021 8939 278e bbbc c967 8ebc
00000010: c9ba 9fbc 3ff0 86bc 3c75 7eba 59d4 17bb
00000020: 7be2 8cba 68a0 96bc c82f 89bc 19b4 89bc
00000030: 0763 8cbc 18de 81bc b5f8 8fbc 65ee 88bc
00000040: 38f8 b3bc 2cfe a8bc ff78 92bc 915f 9abc
00000050: baa6 89be 88a3 9fbc 0882 6ebc 5d90 03be
00000060: 50cb 093b fb1c 7ebc 1e43 2bbc 9d13 b2bc
00000070: f7a2 12bb 734e 843b d079 88bc e1ae a0bc
00000080: 5dfd 89bc 1977 a0bc 9d80 a3bc 30a2 92bc
00000090: 1933 80bc 470a 82bc 5c9a d63a 456e 90bc
000000a0: 6673 a8bc 1629 a2bc 2c9e 87bc fa82 87bc
000000b0: 3942 8cbc a815 a63a b7ab adbc 8ecc 8fbc
000000c0: 46ce 84bc 7649 cd3a 0221 95bc 779f 96bc
000000d0: 0bbd 80bc 3f4c f4bc 8c20 99bc 4660 9dbc
000000e0: b871 7aba c80b 89b9 7d96 82bc 7a0b 1a3b
000000f0: 2a2e 89bc 82c6 adbc 385a a8bc a0b7 a9bc
00000100: 7032 a5bc 7ef2 93bc 984b 1bba 3f6f 9abc
00000110: b36b 8ebc c785 94bc 3b58 88bc 9af1 a6bc
00000120: 1074 dc3a c5f6 9bb9 4597 acbc 83ab 8c3b
00000130: 38dd 8139 457e 00bc fe9a b4bc e53a 93bc
00000140: 6cbd bdbc 1429 94bc 1c1a 85bc d07e 07be
00000150: 6ef0 31bc f5c3 a3bd 3517 8bbc 24c2 b53a
00000160: ec9c 8bbc 7835 e6ba 6579 a4ba e4a1 93bc
00000170: b697 a4bc 44d9 19ba 22c2 9dbc 7a28 9fbc
00000180: 3cc6 11bb 681b 9bbc d365 b7bc 5081 a3bc
00000190: a247 52bc 1c11 2b3b be8a 8fbc 0780 8fbc
000001a0: 0b7b caba 9b9b b0bc 17cc abbc 87f9 99bc
000001b0: 9728 92bc e4fe a7bc 20aa 803a ecfe aabc
000001c0: ca01 73bc 16a1 03be 67c2 80ba 8258 c1ba
000001d0: c038 b3bc 939d 673a 6fa0 9bbc d08e 74bc
000001e0: 1ef7 b1ba 9da2 8fbc 4031 b1bc 24b7 9dba
000001f0: 006d b1bc e012 90b9 f17e 203a 0f5e a1bc
00000200: 7888 25bb a294 9fbc 7f38 9cbc 5cd1 b7bc
00000210: 90c1 4639 1d0f 84bc 20b1 cfb9 a6d5 b2bc
00000220: 5b76 acbc 5f76 c2bc f104 97bc 3ce5 9dbc
00000230: e1c0 8dbc 3aaf fa3a 9ef3 2a3b b122 9cbc
00000240: 1ce8 98bc a27a 87bc 34d2 aebd 1e61 53bc
00000250: c821 413b c05d 2e3a f74c 8bbd b34b 9cbc
00000260: e9ff 97bc 29c4 493a adec 96bc cf01 a7bc
00000270: d6be b4bc b047 9bbc 5c5f e5ba 0442 a8bc
00000280: 5aab b1bc ae76 80bc 94b4 03bb b4c1 acbc
00000290: 0c35 9fbc 7b2f 86bc 825c 2b3b b7ef c3bc
000002a0: 88e9 a7bc 2b53 91bc 1fc1 773b b9fd aabc
000002b0: 8e15 9dbc 48ba 49ba 9080 6d3a ad91 643a
000002c0: 952b 85bc b9b0 a8bc 6e94 c0ba a076 a83a
000002d0: 9838 dd3a 6b96 c539 5368 b0bc 3acc 03ba
000002e0: 5470 24bb f0b0 c339 2206 78bc 66fe 9fbc
000002f0: dc39 b2ba dc91 99bc 7439 a4bc cdc9 9dbc
00000300: 170c 99bc 5630 5dba 93d7 a5bc dbbc 083b
00000310: affe 8ebc 34eb c1bc 4719 a9bc 41c0 2e39
00000320: c898 adbc 0750 a0bc 105a c5ba 1fbe fabd
00000330: af0e a3bc 03d4 aebc fce8 bdba 75fe aabc
00000340: 3200 a4bc 10d5 00bb 362d a6ba 580d aebc
00000350: c478 f83a ae4e c0bc 65ea b4bc c6c9 113b
00000360: 0ca4 77bc e013 aebc eb90 9bbc 03a5 9fbc
00000370: af93 97bc ca32 c8ba d0cc 98bc 2fc6 abbc
00000380: 9fd8 a2bc 8abe 273b 4bb4 adbc c927 55bc
00000390: 4c63 8fbc 00a0 a536 2e15 fd3a 181d d4bc
000003a0: 1734 44bb 8a87 91bc e853 283a 6da7 96bc
000003b0: 3f6e a7bc c5df a7bc 19d8 8e3a d098 e13a
000003c0: a015 b0bc 7a21 17ba c8e0 88b9 1082 85bc
000003d0: 9d54 a8bc a4ae a0bc 50f0 6d3a c494 2dbb
000003e0: bea5 92bc dc8a 503a e814 c0ba f35c a1bc
000003f0: 0f56 9cbc c70a 9bbc cb02 9ebc c0bb 8ebc

l3.bias f4 [2]
-0.014522352 -0.01700269
00000000: 29ef 6dbc 3a49 8bbc
