matd3_actor_best.pth (torch, 279138 bytes, 6 tensors)

l1.weight f4 [256, 10]
00000000: ca86 8e3b 3e76 833e 8927 b5bd d25e 51be
00000010: 6309 08be 72ea 283e 8e2c 093b 7dc8 cf3e
00000020: b687 673d a8ec f03d 3eb9 c3bd e09a 7ebd
00000030: ddad 9abe 5775 56be 257c 05be 00ed 3f3c
00000040: 3004 003e 364c 423e 6d87 5bbe a702 0dbe
00000050: 0e27 ff3d 8bc8 823e f57a efbd 12aa a83e
00000060: 165a 38be 29c7 453d 4021 ec3e d46f b0be
00000070: 6cff ddbe ba1e 6bbd b14d a9bd 6871 f83e
00000080: 0b6a c8be 7574 5cbd e45f ae3c c64a e0be
00000090: 932d 4bbe c40a 0c3e f1c8 103e 0eb4 243e
000000a0: 172f c93d fd31 64be c9c9 843e 9f7a 37be
000000b0: ce41 473b d20b c4be d992 683e fa16 c93e
000000c0: 79fc 32bd 8aea 0d3e 8efb 683e e4ac ce3e
000000d0: 2a6a 4f3e 7347 303e 63f6 833e 8539 80be
000000e0: dc46 173d ee0b 60be bede 8cbe da3a 14be
000000f0: 3b85 ce3d 8b3d 1f3e 0fb4 aebe 7435 af3d
00000100: 9ff3 733e 94c2 7a3d e1f1 53bc cd6d f93c
00000110: 11eb 853e 9388 9a3e bccb 02bf 98b7 f3bc
00000120: 2879 a23e 73c8 8d3e 4760 cf3e 2404 8a3e
00000130: 43cb 1f3b 2664 a5be 611d abbc 9c32 c9be
00000140: 1841 91be a152 a43e b2d4 d13e e526 ccbe
00000150: 7293 383e 2589 7bbd 55a8 9cbd d145 71bd
00000160: 1a57 e03d 3111 acbe 5839 783e 1407 833e
00000170: 134f 713e ff08 533e 2735 99be 6d1d 45be
00000180: e4f7 9b3e 4fda 083e 5235 34be d2d7 7b3a
00000190: e2cf b73e bec9 8a3e 5993 4a3c 3268 273d
000001a0: 309f c4be d508 0a3e 9036 fcbd 3c52 37be
000001b0: 71b6 483d 57a3 9f3d afa0 33bd 0410 893e
000001c0: bb65 a0be 8647 dc3e 6d87 833e 015c b1be
000001d0: 800c c7bd 0e56 ca3d 4b26 0dbb a58c e53d
000001e0: ef72 db3d fc18 133b 6fdb 2dbe a97d 0b3e
000001f0: 9013 a3be b809 4fbe d867 c3bd 89c5 2ebe
00000200: 4d09 02be 6c7e 8cbe 2f9e 4cbe 65a0 9f3c
00000210: ed8d bfbe be69 07be 662a bc3e 6756 2d3d
00000220: 390e dbbc 2647 09be 842f af3d e5f6 4e3e
00000230: a4bf ce3e 1270 3d3e 6e65 683e 86e4 8bbd
00000240: 144a c2be 6a07 bfbe 980b 7e3e 26d9 0f3e
00000250: 80e5 bbbe e1d4 a1be 72d5 7cbe f978 63be
00000260: 31a5 9c3d 24f7 4d3e b673 943e 0f7b 2ebe
00000270: f1eb cd3e ab74 13be 853c 933c c990 1abc
00000280: 107d 79bd 1051 7ebd e849 91be 4ccc 8bbe
00000290: d8ae 4abd 4001 863b 1f1a 13be a0f6 f33d
000002a0: 2aba 91be 10d4 aebc 4f63 7d3e 433f 22be
000002b0: b110 053f 85f8 8a3e 0e15 a8be 5ee7 213e
000002c0: e31e 20bd 1b5b dfbd 9aeb 9f3e 3a06 92be
000002d0: 11fa 133d d4d0 e6bd c18d 933e 28dc b6bc
000002e0: e92c 2b3e dc2a c8ba 3688 29be 2050 54bd
000002f0: f4c5 b7be 9e35 573e c151 c73e 6ddf d23e
00000300: 0684 89bc 7766 2b3e d47a 7bbd f5c3 e63a
00000310: 341e 94bc 64ec 953e 6c30 65bc 9e78 fb3d
00000320: c521 13bd 311f 1e3e 4f01 93be 8e21 60be
00000330: ea13 c0be 0c25 4a3e 5dc2 1bbe c7db ae3e
00000340: 8c81 653e b6a0 a33e 6702 36bc 698f 2abd
00000350: 77c7 4f3e 31ca 7a3d 5e0d 493d 885a 70bd
00000360: 4194 c4be 81e0 8abe b75e 7f3e a34e 72be
00000370: e06f 333d dc8f 963e 3d3e ae3e 7a07 7bbe
00000380: f576 4ebe 91fa ca3e a4ce f3bd c290 0f3d
00000390: ee41 7cbe 5dd6 96be edd2 1cbd 1099 aa3e
000003a0: 0770 4b3d 5e54 b33e 50ae 603e fbf7 81be
000003b0: 26f6 c33d 92c9 65be 219d 6dbe 3a19 013e
000003c0: 7e1d 603e 64c9 8c3e 44f3 36be 0a62 b83c
000003d0: faae 233e c4ca adbe 61cb e63e ae55 aebe
000003e0: 7a94 c23c 709f 87bd 53bb afbe dac9 9fbd
000003f0: 3842 893e 102e 71bc ce58 55be 0a44 68bd
0.004349564 0.2567615 -0.08845431 -0.20446327 -0.13284831 0.16495684 0.0020931098 0.40582648
0.05652591 0.117638886 -0.095568165 -0.06215942 -0.30210772 -0.20943199 -0.13035639 0.01171422
0.12501597 0.18974385 -0.2143838 -0.13770543 0.12458621 0.25543627 -0.11693374 0.32942253
-0.18003115 0.048285637 0.46119118 -0.34460318 -0.43358934 -0.05740235 -0.082667716 0.48524022
-0.39143404 -0.053822 0.021285959 -0.43807048 -0.19841604 0.13675982 0.14139153 0.1608431
0.09823435 -0.22284694 0.259352 -0.1791787 0.0030404213 -0.38290268 0.22712268 0.39275342
-0.043697808 0.13859001 0.2275221 0.4036628 0.20255342 0.17214756 0.25773916 -0.25043884
0.03693281 -0.21879551 -0.2751369 -0.14475575 0.100840054 0.1555082 -0.3412175 0.08555117
0.23823403 0.06122072 -0.012936086 0.030447865 0.26155904 0.30182323 -0.51092124 -0.02975063
0.3173306 0.27691993 0.4050314 0.26956284 0.0024382628 -0.3230297 -0.020888032 -0.39296424
-0.28369975 0.3209429 0.40982586 -0.39873424 0.18024996 -0.061410088 -0.07649294 -0.058904473
0.10954113 -0.33606866 0.24240625 0.25591338 0.2356532 0.206089 -0.29923365 -0.19249506
0.30462563 0.13364528 -0.17598465 0.000960705 0.3590079 0.27107042 0.012364232 0.040870853
-0.384027 0.13479932 -0.123150945 -0.17902464 0.049002115 0.077948265 -0.04385441 0.2677003
-0.31327614 0.43023318 0.2568926 -0.34640506 -0.09719181 0.09879695 -0.0021537717 0.112084664
0.10715281 0.0022445312 -0.16978239 0.13622154 -0.31850863 -0.20218551 -0.09541291 -0.17067541
-0.1269886 -0.27440202 -0.19982217 0.019485662 -0.37412968 -0.13223931 0.36751097 0.042318728
-0.02674018 -0.13406047 0.08553985 0.2021137 0.40380585 0.18499783 0.22694942 -0.06830697
-0.37947142 -0.37310344 0.2480911 0.1404768 -0.36698532 -0.31607726 -0.24690798 -0.22214116
0.07648695 0.20113808 0.2899453 -0.1703913 0.40219072 -0.14399974 0.017973194 -0.0094339335
-0.060910285 -0.062089026 -0.28376698 -0.27304304 -0.04948315 0.0040895045 -0.14365433 0.11912274
-0.28462344 -0.021341354 0.24744914 -0.15844445 0.51978594 0.2714273 -0.32828563 0.15810916
-0.039091956 -0.10906049 0.31234437 -0.28520375 0.036127154 -0.112702996 0.28819087 -0.022321776
0.1671635 -0.0015271562 -0.16555867 -0.051834226 -0.35893214 0.21016547 0.3892956 0.41186085
-0.016786586 0.16738306 -0.061396435 0.0017606007 -0.018080808 0.29281914 -0.013988595 0.12278865
-0.035920877 0.15441586 -0.28711936 -0.218878 -0.37515193 0.19740695 -0.15210862 0.34152052
0.224127 0.3195855 -0.011108971 -0.041640673 0.20290934 0.06122798 0.049085014 -0.058680087
-0.3839436 -0.27124408 0.24938475 -0.2366281 0.043807864 0.2940663 0.3403186 -0.24514571
-0.20162566 0.39644292 -0.11904648 0.03505016 -0.24634525 -0.2946042 -0.038287092 0.33319902
0.049667384 0.35025305 0.21941495 -0.25384507 0.095684335 -0.22440174 -0.23204471 0.1260728
0.2188625 0.274974 -0.17866236 0.022507686 0.15984717 -0.3394376 0.4507704 -0.34049743
0.02375244 -0.06622207 -0.34322605 -0.07802172 0.26808333 -0.014720455 -0.20834658 -0.056705512

l1.bias f4 [256]
00000000: 8cc4 3fbe 0f52 61be 90f7 183e be97 20be
00000010: 9c63 af3c a2c1 063e 492c 8fbe 9b3e 4b3d
00000020: 105f 833e dd0b 0fbe d518 2b3e 7d45 0d3d
00000030: 8284 203e 5621 633e 07c5 413d 9f5d 073e
00000040: 3b60 8bbe 3e52 213e 3a66 373e 15e5 673d
00000050: b0ab 84be 206e a03e 6356 debd 8e6d b73d
00000060: f3b7 b3bd 265c a63e 7a47 783e dce7 6c3e
00000070: 955b ff3c 5e7c 803e 9250 333e 6294 c73d
00000080: 04ea 8abe c0bd 91be 8d73 a7be 2b35 903e
00000090: 0af1 a23e 8f8b 313e cc1b 8dbc f4d3 d73d
000000a0: ff41 3f3e f8b8 20be 1717 57be a147 83be
000000b0: b415 12be fe93 d23b 5353 3a3d 53c0 2dbe
000000c0: b8a2 aaba b1ae 22be 2a98 7dbe d807 de3d
000000d0: 270c 9ebe c889 073e ede6 4ebe 2be7 1bbe
000000e0: abd1 bebd abf9 8ebe 9baa 913e 3a72 843e
000000f0: 9d23 29be d6df 813c 4ebd 073e 4014 a73d
00000100: 857b f23c 49d0 68be 3b84 573e 32c0 9fbe
00000110: a4ec 9cbd 2198 0abd b514 603d 1e5d 0bbe
00000120: ee7b 96be 1550 a3bd ef48 44bd 2846 ae3e
00000130: e657 7abd db76 433e b993 6ebc e631 18be
00000140: 05d6 01be 706a debd fd4a 8abd 02c0 0e3d
00000150: b386 503d 8101 d43e 30f8 353d 9155 d53d
00000160: 0f4e 153e fbc9 ea3d 8311 193e 581e 323e
00000170: fb8e 9e3e db03 45be 6c9d dd3d 4baa 913d
00000180: 0949 bc39 1610 66be 1a91 8f3e 5d9a a13e
00000190: ca21 84be ba2b bf3d 078c 813e 2eae 3f3d
000001a0: c6db 70bc 615f 103e e073 79bc 63aa c5bd
000001b0: 9403 95bd 9911 0fbd 6c18 2f3e 90c4 8bbc
000001c0: c06f cc3d 0ad3 143e d027 83be 0548 b43d
000001d0: 0aa0 933e e8aa 113d dc68 4b3d 4753 5f3e
000001e0: 5223 73be 50cd 13be 56f4 4bbd 13ff 8e3e
000001f0: fe99 9cbe b7bd 1abd 79a7 adbe dcba 79bc
00000200: c9e1 663d a8ad 04be 7d72 813e 81a0 d5bc
00000210: 7f17 25be 752c 943d 2131 113e d03a 893b
00000220: 198b 823e 31b8 edbc 52ed 4e3d c6cd ef3d
00000230: 1603 313e 8fdd 5fbd 839a 04be cd09 7ebe
00000240: 0f1e 7ebe 6cf9 c2bc 3a51 e2bb c4a3 af3e
00000250: 31ac 803e 347e 803e 7a90 0fbe 6235 7ebe
00000260: 343c 9dbe a28c 903d 425d b6be 6ca0 a1be
00000270: 9ba6 23be 38b3 88be 4c23 0ebd c49a 27be
00000280: a608 dabd 60df 9f3e d8c0 b2bd 4e71 473e
00000290: f19a 263e 502e 29bd 2fd9 43be 8347 27be
000002a0: cc15 82be 8907 083e e6d2 1abd c96f bdbe
000002b0: b6a5 843e 4cb3 a7bc b5ae 58be 7069 afbe
000002c0: 313b 88be 28f9 5fbe 7b90 9e3e fa45 323e
000002d0: ecd3 713d 8a92 95be c031 aabc 67bd 91be
000002e0: 5015 b23d dc8c 5cbe 3d78 c0bd 3c37 53bd
000002f0: b046 2e3e f516 573e 2865 8f3d 093a b3bd
00000300: 0685 c2bd d6ba dc3d 648e 22be c274 8f3e
00000310: 1ea8 0bbe e587 883e 014c eabd eea1 583d
00000320: 48ce 1d3d 0363 aabd 8b06 9d3d 41f3 51be
00000330: ad4e 153d 6f66 94bc 3464 e73d 3623 be3e
00000340: d40b 763e 89d0 253d 388f 14be c397 433e
00000350: 1e77 d2bd c815 183e f059 0cbe 82f7 503e
00000360: eeaa 703e 6baa 193e a816 813c 41a9 6e3e
00000370: 5289 93be 17cc 5f3e 8f4f 50bd d01d 603d
00000380: c856 5bbd 2bb3 23be 78d2 bdbd 43a9 3b3e
00000390: 2b2c 30be f1e3 94bd 75e0 803e c2c3 50bc
000003a0: 34f3 9abe 72ff a0be c43b 28be df6d 2e3e
000003b0: f055 4bbe 55f5 573e 9d6d 813e 5481 6f3c
000003c0: 6da1 18be df08 9dbe 69c0 3b3e 2ccd bfbd
000003d0: f80f c03d 03ef 2a3e 9af3 013d 0e24 ddbd
000003e0: 967d 493c 53f8 a13b 203a 7b3c 3a75 133e
000003f0: 3a48 1ebd 4541 963e 28db 04bd da91 9abc
-0.1872732 -0.22003959 0.14938188 -0.15682885 0.021409802 0.13159803 -0.27963474 0.049620252
0.25658464 -0.13969369 0.16708691 0.034490097 0.15675548 0.22180685 0.04730704 0.13219307
-0.27221856 0.15754029 0.1791009 0.056614954 -0.25912237 0.3133402 -0.10856321 0.08956443
-0.0877532 0.3249218 0.24246016 0.23135322 0.0311716 0.25094885 0.17511204 0.09745099
-0.27131665 -0.2846508 -0.32705346 0.28165564 0.31824523 0.17338394 -0.017225169 0.10538474
0.1867752 -0.1569556 -0.21004902 -0.25640586 -0.14266092 0.0064263334 0.04548962 -0.16967897
-0.0013018465 -0.15886952 -0.24765077 0.1084134 -0.30868647 0.13236153 -0.20205279 -0.15224902
-0.09317335 -0.27924857 0.28450474 0.25868398 -0.16517492 0.015853804 0.13255808 0.08158159
0.029599914 -0.22735704 0.21046536 -0.3120132 -0.07662323 -0.033836488 0.054707248 -0.1360974
-0.29391426 -0.07974259 -0.047921117 0.340379 -0.061118983 0.19088309 -0.014561587 -0.14862785
-0.12679298 -0.10860145 -0.06752584 0.03485108 0.05090971 0.41407397 0.044426143 0.10416711
0.14580558 0.11464306 0.14948086 0.17394388 0.3096846 -0.19239752 0.108210415 0.07112559
0.0003591257 -0.22467074 0.2804039 0.31563082 -0.2580703 0.09334512 0.25302145 0.04679697
-0.014700836 0.14098884 -0.015225381 -0.09651639 -0.07276073 -0.03492889 0.1709916 -0.017061502
0.09982252 0.1453363 -0.25616312 0.08802799 0.28833038 0.03556338 0.04966055 0.21809112
-0.23743942 -0.14433789 -0.049793564 0.2792898 -0.30586237 -0.037778582 -0.33916834 -0.015242305
0.05636767 -0.1295687 0.2528266 -0.02607751 -0.16122244 0.07235042 0.14178897 0.004187919
0.25496748 -0.029018493 0.050519295 0.1170917 0.17286333 -0.054654654 -0.12949567 -0.24808426
-0.24816154 -0.023800574 -0.0069066556 0.3430463 0.25131372 0.25096285 -0.14019957 -0.24825051
-0.30709994 0.070580736 -0.35618025 -0.31567705 -0.15981524 -0.26699233 -0.03470163 -0.16367632
-0.10646181 0.3122511 -0.08728188 0.19476816 0.16270043 -0.041303933 -0.19125818 -0.16335873
-0.25407255 0.13284124 -0.037798785 -0.36999348 0.25907677 -0.020471238 -0.21160395 -0.3426013
-0.2660766 -0.2187239 0.30969605 0.17409506 0.059039995 -0.29213363 -0.020775676 -0.28464815
0.08695471 -0.21538109 -0.09397934 -0.051566347 0.17019153 0.21004851 0.07001716 -0.08751304
-0.094980285 0.107778236 -0.1587463 0.28018767 -0.1363835 0.2666618 -0.11440278 0.052888803
0.038526803 -0.08319666 0.076672636 -0.2050295 0.036451984 -0.01811525 0.11298409 0.3713624
0.2402795 0.040482078 -0.14507759 0.19100861 -0.10276626 0.14852059 -0.13706183 0.20406917
0.23502705 0.15006416 0.015757874 0.23306753 -0.28815705 0.21855198 -0.050857123 0.05471593
-0.053549558 -0.15986316 -0.09268659 0.18326287 -0.17204349 -0.07270039 0.25171247 -0.012741985
-0.30263674 -0.3144489 -0.16429049 0.170341 -0.19857001 0.2108968 0.2527894 0.014618237
-0.14905329 -0.3067083 0.18335117 -0.09365305 0.09378046 0.16692738 0.031726457 -0.107978925
0.012298008 0.0049429326 0.015333682 0.14400187 -0.0386431 0.29346672 -0.032435566 -0.018868376

l2.weight f4 [256, 256]
00000000: ded6 75bd f690 39bd 306e 593d 9504 87be
00000010: ca3d 71bd 166f 0bbe b2d8 e7bc e54a 083e
00000020: 0031 2bbe ec96 a23e 247a 03bc 988e fabd
00000030: a7f2 8cbb 06b8 99bd b0c0 b3bd a093 4a3d
00000040: cca9 e53c 2816 9a3d 3474 87bc 753e dbbd
00000050: fb94 2dbf c82a a7bd 602d f3be d524 8ebd
00000060: 83d5 13be 0b8b 1a3e 359b 13be abae b3be
00000070: 1302 48bf 1808 393d b514 3ebd 8b04 c33c
00000080: 41b8 233e 64f6 2ebe 6af3 603d 8ea7 403c
00000090: a8f9 733d 45cd afbc f661 0e3d 395e 373e
000000a0: dcc6 a73c 9af7 fd3e ba41 533e aa5c 5d3d
000000b0: 8761 693f 1225 5f3d cefd 7d3e 7192 89be
000000c0: 5c47 b8bb f24d cbbd 53c9 5f3e c205 01be
000000d0: 6053 c0bc 98ea c03c 8789 9dbe d543 fb3e
000000e0: 986f 00bf 88a0 013d 800c e93c 4ffc 84bd
000000f0: 00a0 d7b7 87ef 0bbd 10d9 d53e 1832 63be
00000100: 9e8b 903e 452a 3e3f 73e1 103b 6525 453f
00000110: c990 c03d 320d 52bc 1ed9 80be 640d b0be
00000120: 94a9 763f f042 6dbf 7b4c cbbd 3cb8 22bd
00000130: 5daa 2f3e 6c60 f43c 494d 943e 0fbc c83e
00000140: a493 593d 68eb d8be da61 c13d 9d31 1e3d
00000150: 290e 96bd 3a13 a63b df77 5dbd 93c9 3c3e
00000160: f270 cdbb 0652 bfbe 862a 0abd 3ff1 9fbd
00000170: 34f8 03be 25fb b13e c07b 813b 7c7d cebe
00000180: abf6 d0bc b824 943b 86ea 75bd 9b49 2e3d
00000190: 7a9f 6abd 05f8 433d 562e a8be b18a 3a3e
000001a0: 02c8 1abd d2b1 8cbc c424 bdbd 2079 e6be
000001b0: 29c5 e93c 5091 223f b43d 063d 0ad1 793d
000001c0: 3c87 403d 22c4 abbd 4064 a83b f0dd b4be
000001d0: 610c 183d 270d 333f 72a6 8a3e cf5e b3bd
000001e0: 4dd8 94be b4c8 f23c 77b3 833d 7114 013d
000001f0: cab6 2dbd c8b3 bdbb ef6b 08be d73b d13c
00000200: 3bce 02bd 4ed0 b63d 083a 95be e79d 503d
00000210: c8cc cfbc 7cd9 fc3d b88e b83c b6a2 b1bd
00000220: e97c 633d 4b3c 9fbf a27d e73d 2823 bebc
00000230: c49e 37be 7000 9fbe b359 d43e d472 29bd
00000240: f648 263d 8e9e 75be da80 30bd 6e82 3bbe
00000250: 0043 083d 5cd0 173d b0e1 edbd 102b a73b
00000260: 1e57 d13e 7cf0 70bd 250d 233e 7a76 103d
00000270: 4afb 5fbd f0e6 d73b 22bc 0cbf d013 11bf
00000280: 1bde a33e 55e9 cd3d 359f 9b3d e3db 09bd
00000290: bdf0 8cbe 930a a73d e101 8abe 4806 4e3e
000002a0: 90c1 75bd a690 243d bd94 babe b6db 34bd
000002b0: aff1 f13d 5b99 003d 6010 143d 7f75 d2be
000002c0: 7376 903f 890c 793e 00b8 9abd 6527 c8bd
000002d0: 7779 8e3e 791e 3f3b 24a0 803e 5578 573f
000002e0: e09c d33d 0757 8dba 4fd6 1abe 810a 463f
000002f0: c369 0e3d e3e0 0ebe c039 bc3d b658 303d
00000300: 2579 dbbd deed 5e3e 6d8e aabe df04 a2bd
00000310: c05f c4bc 3716 22bf 36cc 9c3c a0a8 93bd
00000320: 8b14 0b3d 7f64 b03e 6ed0 c33c 072a 313e
00000330: 5bc2 b23b e325 193d 05c5 bb3e 802d cbbc
00000340: a62c 3ebf 2394 b6be 3c61 93bd 0b78 29be
00000350: 7956 b83d f142 013d 6606 003d edde 86bd
00000360: a247 c83d 7700 1dbf 33a6 bbbc 41b2 953e
00000370: 6e12 10bd 5a36 52bd 6a3d ba3c 83bb 10bc
00000380: a472 c0bc 48fc bebd 80a9 da3d 1995 12bd
00000390: 1045 b8bc 0cd8 86bd f47a c0be 0106 273d
000003a0: 2cd8 bdbe 76f4 30bd 4ff8 5c3d 8afa e0bc
000003b0: 4b40 2b3f bf64 0fbf 1658 403d ed0e b0be
000003c0: 42e8 443c 5910 80be ba8a 843e 8644 033d
000003d0: 9575 1e3f 30f5 bbbd 707a 47be 56f8 61be
000003e0: 30d8 44bd 8a8e 5dbe 698a 343e f4f4 0bbe
000003f0: c913 8abe e36b 9dbd fcea c73c cb39 adbe
-0.060019366 -0.04530426 0.0530836 -0.26370683 -0.058896817 -0.13616595 -0.02830157 0.1330982
-0.16717911 0.3175577 -0.008024726 -0.12234229 -0.0043013874 -0.07505803 -0.087769866 0.049457192
0.028035067 0.07523757 -0.016534902 -0.10705272 -0.6780545 -0.08162457 -0.47495556 -0.06940619
-0.14436917 0.15092103 -0.14414676 -0.350942 -0.78128165 0.045173734 -0.046406467 0.023805877
0.15988256 -0.17086178 0.054919638 0.011758698 0.059564263 -0.021460185 0.03476139 0.17907037
0.020480566 0.49602968 0.20630541 0.05404345 0.9116444 0.054478712 0.2480385 -0.26869538
-0.005623741 -0.09926976 0.21854143 -0.12599853 -0.023477256 0.023549363 -0.30768988 0.4907519
-0.5017028 0.031647235 0.028448343 -0.064934365 -2.5704503e-05 -0.034163978 0.41767168 -0.22187078
0.2823152 0.7428325 0.0022107034 0.77010185 0.094026156 -0.012820529 -0.25165647 -0.34385216
0.96352506 -0.92680264 -0.09926697 -0.03972648 0.17154832 0.029831134 0.28965214 0.39205977
0.053119317 -0.423671 0.09442492 0.038621534 -0.073269196 0.00506821 -0.054069396 0.1843627
-0.0062695676 -0.37367266 -0.03373196 -0.07809686 -0.1288765 0.3476192 0.0039515197 -0.40330112
-0.025508245 0.004520979 -0.060038112 0.042550664 -0.057280995 0.04784395 -0.32847852 0.18216969
-0.0377884 -0.017174635 -0.09235528 -0.45014286 0.028536396 0.6350298 0.03277369 0.06099037
0.04700397 -0.08387019 0.005138904 -0.35325575 0.03712118 0.69941944 0.27080113 -0.08758318
-0.29071274 0.029636718 0.064307146 0.031513635 -0.04241065 -0.005789254 -0.13322423 0.02554123
-0.031934958 0.0892645 -0.29145837 0.050931837 -0.025366202 0.12346169 0.022528991 -0.08673613
0.055539045 -1.2440275 0.113032594 -0.023210123 -0.17931658 -0.3105502 0.41474685 -0.041369274
0.040596925 -0.23986265 -0.043091632 -0.18311474 0.03326702 0.03706394 -0.11615312 0.005101569
0.40886778 -0.058823094 0.15922983 0.035269238 -0.054683007 0.006588809 -0.5497457 -0.56670856
0.3200539 0.1005427 0.07598726 -0.033656966 -0.2752742 0.08156314 -0.26954558 0.20119584
-0.05999905 0.04017701 -0.36441603 -0.044154845 0.118136756 0.03139625 0.03614843 -0.41105267
1.1286148 0.24321188 -0.075546265 -0.09773139 0.27827045 0.002916245 0.25122178 0.8416799
0.10332656 -0.0010783382 -0.15120815 0.7735978 0.03476883 -0.13952975 0.091907024 0.04305335
-0.10716466 0.21770427 -0.33311787 -0.07911085 -0.023971438 -0.6331515 0.019140344 -0.07209897
0.03395514 0.34451672 0.023903098 0.17301188 0.005455298 0.037389647 0.3667375 -0.02480197
-0.7428688 -0.35659894 -0.0719628 -0.16549699 0.09000868 0.03155798 0.031256102 -0.065854885
0.09779288 -0.61328834 -0.022906398 0.2923756 -0.035173826 -0.051321365 0.022734363 -0.008833769
-0.023492165 -0.093254626 0.10676861 -0.03578672 -0.022493869 -0.065841764 -0.37593806 0.04077721
-0.3707899 -0.043201886 0.053947743 -0.027463216 0.6689498 -0.560131 0.046959005 -0.34386387
0.012018265 -0.25012472 0.2588709 0.03204777 0.61898166 -0.09177625 -0.194803 -0.22067389
-0.048057735 -0.21636406 0.17630924 -0.13667661 -0.2696822 -0.076865934 0.024404041 -0.33833155

l2.bias f4 [256]
00000000: 616a 3abd abea 9f3b 7cf3 d7bc 2b0d 92bc
00000010: eec0 863d a58c a53d e6a9 51bc 39b5 af3e
00000020: 6093 40bd 6036 c33c 0590 bb3c 4f0c 373b
00000030: 976c 93bd 8f66 2abd 09a5 56bd 42bc 7f3d
00000040: 0c56 12bd 7ce6 2ebd 9045 a63d 8819 9b3d
00000050: 824f f43c 8645 603d 305c 263d 277a dfbc
00000060: fafa e8bc b97e 9d3d 3a04 453c 0ac0 2f3d
00000070: f083 85bc 10a3 51bd a68d c03b e17f 153c
00000080: 32f6 553c be30 a93c 5c86 313d e503 55bc
00000090: 195d 13bd 1e33 d33c be61 9a3d 1976 ea3d
000000a0: 2026 d5bc 2640 a63c eb2c 22bd 13da d63d
000000b0: 7a44 a9bc c090 0bbd 73e5 3f3d 8bfa 6bbd
000000c0: e4d9 0a3d 507e 81bd c7fa 913d ab34 cbbd
000000d0: 67ab 34bd 5f75 c2bc 9e78 d5bc 991a b9bd
000000e0: deaf 82bd 3d88 b43d 4008 253c e49f f83b
000000f0: 2519 8bbb a26a 383d d223 203d ebfc b83b
00000100: 4828 a8bd 51d8 773d 34a7 efbc 0b95 d5bd
00000110: 3e35 e0bc dddd 213d 521a ebba ae98 39bd
00000120: 5b78 54bd 3bb6 51bd cf50 723c f206 3f3d
00000130: 6947 8abd baf2 88bc 8f81 503d 5a73 55bd
00000140: a6dd fbbc 567f 883c 6339 08bd c037 81bd
00000150: a471 94bc 6172 c83b 3c79 453d b0b7 14bd
00000160: b171 b83c c1af dbbd 2696 61bd bd58 c83b
00000170: e74f 9cbd 58ad f83c 09c7 5bbc dfd5 11bb
00000180: 1808 1c3c 44c2 84bd 284f ca3c 4ec5 633d
00000190: 66cf d73c ded8 48bd 719f 743d 827e 4c3d
000001a0: 5faa 3bbc 8a02 20bd fb4e 993d 7d14 763c
000001b0: 0296 343d bd1a 923d 2ca2 9cbc 6be4 57bd
000001c0: 5185 2b3d ed81 e2bd 630f 8ebd ad3a 7bbd
000001d0: 9316 233d 0ec7 a73d 0523 153d 5c12 3abd
000001e0: 748b 0fbd ebf5 d1bc 8cf1 79bd c254 ffbb
000001f0: 3c36 ad3d 835c 19bd a71e 7cba ecee 4c3d
00000200: 3217 23bd a992 01bc 1113 45bd 0d8b cf3c
00000210: ed99 0cbd f52a 5bbb a610 d9bc 800b 063c
00000220: 45df 793c f89a 0cbd 0c34 c43c b73f b23d
00000230: 4a45 63bc 2e6a 10bd ace2 1abd ac1b dcbc
00000240: 1d4f 2dbd 46ab 9d3d 5ace c6ba ca82 b43b
00000250: aaec 7dbd 68eb e5bc 24d2 a53b 2baf c13c
00000260: 7476 0cbe 8c06 c9bc dfd2 9c3d c757 853d
00000270: 1de7 35bd 2830 e83c b187 70bd 74d2 ab3d
00000280: 5280 963d 22ef 843b 4286 043d 6fdb 0b3d
00000290: c4a8 e0bc 16a8 9d3b 6ff8 173d 574b 023b
000002a0: 6b0e 78bd 8985 15bd b3d6 3a3c eb2c 243c
000002b0: 7bca 0abd 2eca 40bd fb83 2bbd cd19 19bd
000002c0: ac4e 6f3c 2f58 593c b014 73bd 9370 92bc
000002d0: b8ba 42bd 9433 3f3d f887 7ebd c572 24bd
000002e0: 06d3 37bd 94c0 29bd 3dad 9abd 2bbc 4d3d
000002f0: 0235 363e fe92 9fbd f205 dfbb 7d64 a8bc
00000300: cacc 8fbd 33b3 653e e021 073d af0b 6e3e
00000310: 499f 7c3d 631d 763d c359 9a3d 9168 4bbd
00000320: e03e 00bd 70fd 5fbd 2f75 ae3c 8128 afbc
00000330: 734c 75bc 267f dd3b 7cf8 33bc 3d92 943d
00000340: 3e92 af3d 8672 2abd 89e6 ca3d ad10 ce3d
00000350: c660 8b3d ffdf 853d 619e 773d a026 8abc
00000360: c29b af3c 50b2 1cbd a1d6 993a ad64 95bc
00000370: 03d2 993d 4243 333c 2aee 9e3c f590 ce3c
00000380: d1d9 593d 76d1 3cbc 0c49 743d 14e5 903d
00000390: 8f1e dd3c 6105 463d b70e 4abd 4fd8 553d
000003a0: efe7 16bd 3dfa 233c 9313 e6bc 1569 2f3d
000003b0: 9837 6fbc 34c1 893d 6eca acbc 2310 143c
000003c0: f66d be3d 4355 2abd 8d8c 67bd d78f 2dbd
000003d0: 40d2 8bbd b8f5 b13d 8d56 973c e825 293d
000003e0: d240 643d c885 3c3d 4274 ffbc 051f 0fbd
000003f0: d404 743d 0887 26bd f824 03bd ba87 063c
-0.045511607 0.0048802695 -0.02636122 -0.017828545 0.06579767 0.080834664 -0.012796855 0.3431795
-0.047015548 0.023829639 0.022895822 0.002793092 -0.07198446 -0.041601714 -0.052403484 0.062435396
-0.035726592 -0.042700276 0.08118737 0.07573229 0.029823069 0.054753803 0.04061526 -0.027279926
-0.028439987 0.07690186 0.0120249335 0.042907752 -0.016298264 -0.0511809 0.005876261 0.009124727
0.013059186 0.020653125 0.043341026 -0.013001417 -0.035977457 0.02578121 0.07538174 0.114483066
-0.026019156 0.02029426 -0.03959362 0.10490813 -0.020662535 -0.03407359 0.04684968 -0.057611983
0.033899203 -0.0632292 0.0712791 -0.09922155 -0.044108775 -0.023737608 -0.026058491 -0.09038276
-0.063812 0.08815048 0.010072768 0.00758742 -0.004244941 0.045023568 0.03909666 0.0056453845
-0.08210808 0.06050903 -0.029254533 -0.10428818 -0.027369138 0.039518226 -0.0017936921 -0.045311622
-0.051872592 -0.05119918 0.014789774 0.046637483 -0.06751902 -0.016717304 0.050904807 -0.05211196
-0.030745339 0.016662281 -0.033257853 -0.063094616 -0.018120594 0.0061171507 0.04821132 -0.03630799
0.02251515 -0.10726882 -0.055074833 0.006114094 -0.07632428 0.030356094 -0.013414153 -0.0022252721
0.009523414 -0.06482366 0.024695948 0.055608086 0.026344012 -0.049034946 0.059722368 0.049925335
-0.011454194 -0.03906492 0.074857675 0.015019533 0.04408837 0.07134006 -0.019120298 -0.05270807
0.041875187 -0.110599376 -0.069365285 -0.061335254 0.03981645 0.081922635 0.03641035 -0.045427665
-0.035045102 -0.025629958 -0.061021373 -0.0077920863 0.0845761 -0.03744174 -0.00096176047 0.05003254
-0.039817043 -0.007908502 -0.048113886 0.02533486 -0.034326483 -0.0033442352 -0.026497196 0.008181453
0.0152509855 -0.034327477 0.0239506 0.08703559 -0.0138715 -0.03525751 -0.037813827 -0.026868664
-0.042311776 0.076986834 -0.0015167699 0.0055087553 -0.06199328 -0.028066352 0.005060451 0.023643097
-0.13717061 -0.024539255 0.07657408 0.06510883 -0.04440986 0.028343275 -0.058723155 0.0838975
0.07348694 0.004056827 0.0323546 0.034144815 -0.027424224 0.004811297 0.03710216 0.0019881332
-0.060560625 -0.036504302 0.011403727 0.010020475 -0.033884507 -0.047067814 -0.041873913 -0.03737812
0.014606159 0.0132656535 -0.0593459 -0.017875945 -0.04754135 0.046680048 -0.06214139 -0.040148515
-0.044878982 -0.041443422 -0.07552574 0.05022828 0.17793658 -0.077917084 -0.0068061287 -0.020555729
-0.07021482 0.2243164 0.03299129 0.23246644 0.061675344 0.06008662 0.07536652 -0.04966027
-0.031309962 -0.054685056 0.021296112 -0.021381618 -0.01497184 0.006759542 -0.010984536 0.07254455
0.08572815 -0.041613124 0.09907252 0.100617744 0.068055674 0.065368645 0.060453776 -0.016864121
0.021436576 -0.03825599 0.0011736938 -0.018236483 0.0751076 0.0109413285 0.019400675 0.025215605
0.05318624 -0.011524549 0.059639975 0.07074943 0.02699211 0.048344973 -0.04933044 0.05220824
-0.036842283 0.010008392 -0.028085506 0.042824823 -0.014600657 0.06726304 -0.02109262 0.00903705
0.09298317 -0.04158522 -0.056530524 -0.042373504 -0.068272114 0.08689445 0.018473888 0.041295916
0.05572588 0.04602602 -0.031183366 -0.034941692 0.059574917 -0.04065612 -0.032017678 0.008211071

l3.weight f4 [2, 256]
00000000: b4d3 093f 6514 af3b 4572 843d 85ca 6bba
00000010: 43f0 e5be 878c a5be bd73 343c 11b6 ad3e
00000020: 7be2 8cba ab38 b0be 809a e8bd a436 873c
00000030: fcac 1a3e f208 b9be 985b 3bbf 6f8b 5fbf
00000040: 063a b4bf b91c 96bf bccc 143b c700 9abe
00000050: 775d 13bf e5d0 4bbf 88c7 913d 3315 ef3e
00000060: 1400 b43b 4500 91be a0a0 88bf 5164 84bc
00000070: 6faa 12bb dc5f e7bb a3e9 84bd 07a9 d73e
00000080: 84d0 f43e f15c b1be 0f12 f6be ccd5 79be
00000090: 06b8 043f 0824 893f 367b 9fbe afe0 37bf
000000a0: fa85 13bf 391c 94bf 0b67 c7be 85d2 45bf
000000b0: fde3 8fbf ec36 2b3c d211 24bf d157 343f
000000c0: f9b2 1fbf a2cc f6ba ffd1 c0bd 57ee 1abf
000000d0: d5c2 833f cca3 87bb 66a5 15bf 167f 30bf
000000e0: e8bc 193b 26d7 02bf d84d ddbd 78cd 863a
000000f0: c9ad 183f 185c 95bf ad84 22bf 3eff 17be
00000100: f7bc 903f a4aa 7fbf 984b 1bba 35e9 b73e
00000110: 4f02 53bf 269b 4fbf a60b 6cbf fa93 61bf
00000120: 4916 c23b 042a 0cbf 6981 9fbf 325c 25be
00000130: 881b 813d 1ec7 8a3a 9abe 29bf 5a03 abbe
00000140: 1eea bebf b848 f7be 6fc4 e43d d686 66bc
00000150: ddc2 28bf bb05 733c a746 423f bcf4 ddba
00000160: 3cf6 b23e 2bdd edbf a37d a5bf 4259 b1be
00000170: db7a acbf ea5c 073a b8c9 abbe c1bc 1ebd
00000180: 5119 183f 6226 d8bd e901 95bf 8775 26bf
00000190: b814 5537 e19e 2e3b c0c4 21bf bf7f d8be
000001a0: dc72 b73b 0446 233f d258 4dbe f5ca 6abf
000001b0: 2690 7bbf b7fb 29be 20aa 803a 6aae 90bf
000001c0: 0614 143c 0fe6 0b3c 2cae 45be 2783 d8bb
000001d0: a432 8bbe b339 1c3f 6fb5 583f 79a4 e9bd
000001e0: 25cf c7bc a63d 2a3f 1c3d abbf 2c62 ab3b
000001f0: 02d3 00bf d593 1437 c855 b6bb ec25 0bbf
00000200: 7888 25bb 9aa5 6abf e85d 263f 981d 1ebf
00000210: 1d14 003f 894d 883f 97c4 f5be 5237 8bbf
00000220: e5cc 17bd 0865 3fbf 6bb0 763e 4f44 5fbf
00000230: 256e 4dbf 10e2 d03e 4384 44ba 99c7 0dbf
00000240: 85a5 713f 9f7a 663e 7d4e 08bb 8041 46be
00000250: 5e2c e639 2af3 a5bb 1ddc 8cbf 831f 19bf
00000260: 5903 c5be f75d 073f 51fe 443e b884 6b3b
00000270: cc14 d2bd 6dce d33e 92ac f03b bbfb 7f3e
00000280: dba1 843c fb4c 433e 94b4 03bb 059a 3dbf
00000290: 3a26 30bf 90a1 09be 1d4d 01bb e398 09bf
000002a0: 67a9 aebf 734b a7be 98ed 203f 9e2d 09bf
000002b0: babc f1be 1154 abbb 795e bbbb f4b3 09bf
000002c0: fba1 83bf 3df3 49be 6e94 c0ba 596b 26be
000002d0: efc2 acbb 41df 8f3b e351 49bf 2a8e efbe
000002e0: 04de 7539 f0b0 c339 1321 4cbf 7d39 b6bd
000002f0: 0cae 0fbd 5390 09bf 0610 543d 1460 5cbf
00000300: d552 adbf e981 7a3e 0ece 35be 4f65 873e
00000310: 497e 55be 21ca f4be 9c8c 043d 78fb bbbb
00000320: 0ae8 debe 0ee7 31be e927 e7be 99ea 05bf
00000330: 35bd e9bf d929 83bf e9fa e9bd 6d7a 14bf
00000340: e0b9 94bf d460 64bf c569 cfbe c201 2bbf
00000350: 7a82 c5be 9a87 bdbf b3ce 97be 47a4 2abb
00000360: 2e35 abbf 87af 85be 5f07 e0be bda4 81bf
00000370: db63 96be 2406 bc3a 662c b0be ffe3 7a3f
00000380: 48a1 1fbe 5416 d7bb c87d 07bf 2bea 1fbe
00000390: 935d 9a3f 24a1 0cbc 5d5c de3b 4660 98be
000003a0: 349e 4f3b 4cda 003f 2e5d a0ba de15 e3be
000003b0: 88f4 5abf e194 e4be b878 a3ba fd20 04bf
000003c0: f69a 0f3e 6230 0a3d 51c4 b437 3001 513f
000003d0: bfc4 bbbf cfff 8fbe aef5 12bf c726 0b3a
000003e0: 6267 02bf a188 063c 19f7 e9bc ec48 d1be
000003f0: ad26 21bf 30cf a23e 3039 963d 96db 843f
0.5383866 0.0053430074 0.06467108 -0.00089947163 -0.44909868 -0.32333776 0.011013922 0.33927968
-0.0010748649 -0.34418234 -0.113575935 0.016505547 0.15105051 -0.36139637 -0.73186636 -0.87322134
-1.4080207 -1.1727515 0.002270504 -0.30078718 -0.5756449 -0.7961562 0.07118136 0.4669586
0.0054931734 -0.28320518 -1.0674019 -0.016161116 -0.0022379418 -0.007060988 -0.06489875 0.42121145
0.47815335 -0.3464122 -0.48060653 -0.24397963 0.518433 1.0714121 -0.3114869 -0.71827215
-0.57626307 -1.1571113 -0.38945803 -0.7727435 -1.1241452 0.010450106 -0.6408969 0.704465
-0.62382466 -0.0018829296 -0.094150536 -0.6051993 1.0293833 -0.004139399 -0.58455503 -0.6894392
0.0023458544 -0.5110954 -0.10805863 0.0010284623 0.59640175 -1.166873 -0.634837 -0.14843461
1.1307667 -0.9986975 -0.0005924045 0.3592011 -0.824254 -0.8109611 -0.92205274 -0.8811642
0.0059230668 -0.5475161 -1.2461368 -0.16148451 0.06304079 0.0010587906 -0.6630646 -0.33400995
-1.4915197 -0.48297668 0.11170279 -0.014070233 -0.6592234 0.014832909 0.75889057 -0.0016933898
0.34953487 -1.858312 -1.2928966 -0.3463841 -1.3474993 0.00051636866 -0.33552337 -0.03875423
0.5941363 -0.10554196 -1.1641208 -0.6502308 1.2700613e-05 0.0026644992 -0.6319084 -0.42284963
0.005598409 0.6377871 -0.20053414 -0.9171594 -0.9826683 -0.16599928 0.0009816326 -1.1303227
0.009037977 0.008538737 -0.19304723 -0.0066074315 -0.27187073 0.6102554 0.84651846 -0.11408324
-0.024390766 0.6650032 -1.3378024 0.005230209 -0.5032197 8.855907e-06 -0.005564425 -0.5435474
-0.0025258344 -0.9165894 0.6498704 -0.61763906 0.5003069 1.0648662 -0.4800155 -1.0876257
-0.037060637 -0.74763536 0.24090736 -0.87213606 -0.8024619 0.40797472 -0.0007496515 -0.55382687
0.9439319 0.22507714 -0.0020798736 -0.19360924 0.00043902075 -0.005064388 -1.1004673 -0.5981371
-0.38479117 0.52877754 0.19237639 0.003593726 -0.10257873 0.41368428 0.0073447907 0.24998371
0.01619046 0.19072334 -0.0020096647 -0.7406314 -0.6880833 -0.13440537 -0.00197298 -0.5374891
-1.3645447 -0.3267475 0.6286254 -0.5358523 -0.472143 -0.0052285274 -0.005718049 -0.5379021
-1.0283808 -0.19721694 -0.0014692673 -0.16251887 -0.0052722613 0.0043906276 -0.78640574 -0.4678815
0.00023447728 0.00037325127 -0.7973797 -0.08897684 -0.035078093 -0.53735846 0.051773094 -0.86084104
-1.3540903 0.2446362 -0.17754385 0.2644448 -0.20848955 -0.47810462 0.032360658 -0.0057367645
-0.43536407 -0.17373297 -0.45147637 -0.5231109 -1.8260866 -1.0247146 -0.114248104 -0.57999307
-1.1619225 -0.8921025 -0.40510383 -0.6679956 -0.38576108 -1.4807007 -0.29649886 -0.0026037858
-1.3375604 -0.2611048 -0.43755624 -1.0128399 -0.2937306 0.0014345092 -0.34408873 0.98004144
-0.15588868 -0.006563941 -0.529263 -0.15616672 1.2059807 -0.008583341 0.006785913 -0.2976095
0.003167999 0.50333095 -0.0012234801 -0.4435262 -0.85529375 -0.44644836 -0.001247189 -0.51612836
0.14023957 0.033737548 2.1549089e-05 0.81642437 -1.4669417 -0.28124854 -0.5740613 0.00053082075
-0.50939 0.008211286 -0.028560208 -0.40875947 -0.6294964 0.31798697 0.073351264 1.0379512

l3.bias f4 [2]
00000000: 550c ef3d f8df 043e
0.11672274 0.12976062
